Experiments/Hopper/TrainedModels/multistep_flow_dynamics_hopper.pth (torch, 296558 bytes, 6 tensors)

weight f4 [256, 15]
00000000: 07cd a5bb 4c23 16bd a1c4 b2bd a5bd 11bc
00000010: f505 3f3f bddb 233d aeea 76bc e2be a93d
00000020: 1296 2f3c ed92 c43b ca20 ec3c 9bb9 8fbb
00000030: fdd5 0d3d fa26 4abe 4aeb 743d 889b ae3c
00000040: 8199 eabd 944c 1ebe 7950 013f 3f20 8f3e
00000050: bb53 a9be 237d c6bd 3f51 03be 7294 153e
00000060: 6e75 52bd 5158 863d 6d8d 1abd 4935 b43d
00000070: 082e 60bd 2e16 b73e 38f8 2b3b 7aef 123e
00000080: 6fd5 483f f7a7 8d3f 8b97 12bf 3145 d1be
00000090: e453 f2bd 153f 563d 0019 d2bd 9354 803e
000000a0: 6be8 563d 9bc1 d23c 3ce1 813b 9220 a1bc
000000b0: bfed dc3c c840 8fba 7912 a6be 1f94 38bd
000000c0: e847 613e dc16 96bd ae10 82bf a6b4 0e3e
000000d0: e1b7 f33d bb39 80bd cca3 863d 335a ba3c
000000e0: 4212 0abe c8fb c63c 13a3 69bb adca 85be
000000f0: 01c0 c6ba ebe0 913e e691 d5bf 319d 883f
00000100: 0d3a 853f 152d 093f a3f5 46be 4f19 4cbd
00000110: 00e6 0a3e fd5a 0bbe 8032 63bd ae31 e7b9
00000120: 4bb1 94bc bf2e aabc 7063 5cbd 11bc 56bb
00000130: 0a55 25bf 7ea2 c2bc 6424 103d 5663 2c3d
00000140: 4b44 2a3f 5fe6 7d3e af71 873d 8a36 6e3b
00000150: 0584 8a3c c376 4bbc ac45 fdbc 9dd8 003d
00000160: 5313 6f3c 3c2c b93e 63e2 38bc cf72 823c
00000170: cbbe a8bf e091 073f b3fe 603d 5138 163f
00000180: cee0 cbbd 151f e0bc 6515 cbbc 301a 423d
00000190: 7189 8b3c e863 21bd 88fc fdb9 7066 8dbd
000001a0: d207 3e3e 82e8 51bb 3f67 cabe b1f2 22bf
000001b0: 155b d23e 58c9 403e 59f2 9b3e 8b8f 0e3e
000001c0: c334 eebd 1481 54be c38d d03d 4208 de3c
000001d0: 3c83 acbd 5c54 d43c 8dc4 9abc 7eb6 8d3c
000001e0: 6c17 97bd d1f3 42be f026 6b3e e8b9 913e
000001f0: 1eef 313d 7126 c8be 041a 6abd 302c 4abe
00000200: 4510 c43d be2f acbd ea85 20bd 59b9 563d
00000210: a973 643e 840a 873c 86fc 343e e0c0 5a3b
00000220: f376 82be 6b39 babe 6017 0a3f 2a35 8e3d
00000230: 850f c93e 18a9 703d 2599 7bbe db84 4d3e
00000240: 842b 4cbe 96cd d6bd 2d60 4a3d 0342 4abd
00000250: 687e 953b cc62 aebc b9f3 973b 95ae a9be
00000260: a102 95bd e82c 96bd 46ed 173d e847 12bf
00000270: 49ee 443d 7690 923d 8fee f83c 0e2e c33c
00000280: f9c9 92bd 9bd3 3f3c 1c2f c7bc 7b2c c7bd
00000290: c95b a13e 5196 1dbb 2784 d03e 6fe0 6dbe
000002a0: 2bb0 0bbe 0a76 9740 fd96 103c bf6a 01be
000002b0: 8948 233d b0a2 1b3e b72c 1bbe a567 abbd
000002c0: b93d a73c 8738 f43c 35ef 8f3b 3a2c 653d
000002d0: e98e ceb9 e574 61be 7c03 c33e c010 48be
000002e0: ba85 99bd 5128 87bf d9bb 45bd 9c68 523d
000002f0: ba45 d43c c80f 42bd 3c9d c4bc 1d24 f4bd
00000300: 27a3 2fbd c21e b73c 64bc 94be f633 c2bc
00000310: d512 f4be 8805 1e3f 8204 be3b 0423 d8be
00000320: df89 013f a185 bcbc 479c 253d 1cf2 79be
00000330: 600b 453e cc94 bb3d d12c ebbc 4756 2dbe
00000340: b3ea f9bd ccf2 d5bb 5e1e 83bc d9a0 a9be
00000350: 745d 903e 0b3f 723e 3977 febd 19ff 82be
00000360: 3472 04be c045 82be aecf 473e 141a 4abe
00000370: 3203 03be e65a 163d 7798 17bb d953 e9bc
00000380: d4c0 dabd c7b3 8c3b ae11 c83c 1c0a 553e
00000390: 13cc 9d3d 7793 00be e3c9 413f 1467 41bd
000003a0: 375e 95bd 940c 003e ca2f 9fbd 4e5d 76bd
000003b0: 58d1 9c3c 425e b63b 59d1 c5bc cc06 10bd
000003c0: 6435 95bd d37a c5be 2466 913d 6593 9c3e
000003d0: 39cf d63d 0553 e93e 7e01 4bbe 0170 073e
000003e0: 971e c43c d5e9 a2bd 367a 2aba 8113 84bd
000003f0: df3d 84be dbb5 a5bd 24f3 6cbe 153b 853c
-0.0050598416 -0.036654755 -0.0872891 -0.008895312 0.74618465 0.04000448 -0.0150706 0.08288361
0.010716932 0.00599896 0.028824229 -0.0043861396 0.034627903 -0.19741431 0.0597947 0.021314397
-0.1145506 -0.154589 0.50513417 0.2795429 -0.33071694 -0.09691837 -0.12823962 0.14607409
-0.05138152 0.06559814 -0.03773253 0.08799226 -0.0547314 0.3575911 0.002624048 0.14349166
0.78450674 1.1066884 -0.57262486 -0.408731 -0.11832407 0.052306253 -0.102586746 0.25064525
0.052467745 0.025727084 0.0039636176 -0.019668851 0.026968835 -0.001092934 -0.3243597 -0.045063134
0.22000086 -0.07328579 -1.016134 0.139361 0.119003065 -0.06261011 0.065742105 0.022748088
-0.13483527 0.02428998 -0.0035650178 -0.26131192 -0.0015163423 0.2849191 -1.668515 1.0672971
1.0408341 0.53584415 -0.1942964 -0.049828824 0.135643 -0.13608928 -0.055468082 -0.00044096768
-0.018150946 -0.020774243 -0.05380577 -0.0032765905 -0.64582884 -0.023759123 0.035190955 0.04208692
0.66510457 0.24794911 0.0661348 0.0036348426 0.016908655 -0.012418452 -0.030917011 0.03145658
0.01459201 0.3616656 -0.011284444 0.015923886 -1.3183225 0.5295696 0.0549304 0.5867968
-0.099549875 -0.027358571 -0.024790475 0.047388256 0.01703331 -0.03940192 -0.0004844407 -0.06904304
0.1855767 -0.0032029455 -0.39531896 -0.6365157 0.41085115 0.18826807 0.30458334 0.13921945
-0.11631157 -0.20752364 0.10183289 0.027103547 -0.084234685 0.025919132 -0.01889255 0.017298933
-0.07377514 -0.19038321 0.22964072 0.28462148 0.04344093 -0.39091828 -0.057153717 -0.19743419
0.09573416 -0.084075436 -0.03919021 0.052422855 0.22309746 0.016484506 0.17674455 0.0033379123
-0.25481376 -0.3637193 0.5394192 0.06943734 0.39269653 0.05875501 -0.24570139 0.20070212
-0.19938475 -0.10488431 0.049408127 -0.04937936 0.004562188 -0.021287344 0.0046372083 -0.33141008
-0.07275892 -0.07332784 0.037091516 -0.5714097 0.04807881 0.0715646 0.030387191 0.023825672
-0.071674295 0.0117081655 -0.024314456 -0.09725281 0.3151534 -0.0024045894 0.40725824 -0.23230146
-0.13641421 4.733159 0.008825061 -0.12638377 0.039864097 0.15198779 -0.15153776 -0.08369378
0.020415174 0.02981211 0.0043925294 0.05595038 -0.00039397858 -0.22017248 0.38088596 -0.1953764
-0.074962094 -1.0559179 -0.04827485 0.051369295 0.025912154 -0.04737833 -0.024000756 -0.119209506
-0.042880204 0.022353534 -0.2904998 -0.023706418 -0.47670618 0.6172719 0.005798877 -0.42214215
0.50601 -0.023012938 0.04043224 -0.24408764 0.1924262 0.0915924 -0.028707894 -0.16927443
-0.122029684 -0.006529188 -0.016005691 -0.3313053 0.281963 0.23656861 -0.12425084 -0.2558525
-0.1293419 -0.2544384 0.19512817 -0.1973651 -0.12794188 0.03670778 -0.0023131648 -0.028482364
-0.1068131 0.004293892 0.024422493 0.20804638 0.0770494 -0.12556253 0.7569868 -0.047217444
-0.07293361 0.12504798 -0.07772787 -0.060147576 0.019142792 0.0055654356 -0.024147676 -0.035162732
-0.07285574 -0.3857027 0.0709956 0.30581203 0.10488743 0.4557115 -0.19824788 0.1322632
0.023940368 -0.07954756 -0.0006503196 -0.064490326 -0.25828454 -0.08091327 -0.23139626 0.016263524

bias f4 [256]
00000000: db5b 623d ff8f d7be bd07 6bbe b19d 18bf
00000010: 9ecd 893d 8088 94be d071 2bbe cf9a 1dbe
00000020: fb40 10bf cc1e cabe 30ef 09bf 760d 48be
00000030: 0d43 dabe 222f ea3d c621 eb3e 7a0b 22bf
00000040: db49 edbe 74b0 26be 5e3f 20bf 52c5 a7be
00000050: f97e cfbe 3633 b1be 3651 cabd 93fc c4be
00000060: 34d1 b83e 9230 eebe de23 eebe 5caa 63be
00000070: cf61 3a3d fc4e 29bf ef0b febd 31a7 a5be
00000080: a689 94be 6b00 b9bd b8db 563e 4bd3 38bf
00000090: 9b81 04bf 90ec 173d 59ad 6abd 9b8a adbe
000000a0: dd9e 3abe a806 d2be 6743 49ba d7d3 06bf
000000b0: cd94 d03e 294e eb3e c13c f4be c07b 78be
000000c0: 3836 98be 2642 c9be 3fb4 0f3e 0404 83be
000000d0: 10ee 01bf 7cf1 2ebf 7a67 2f3d a254 e6be
000000e0: de1d d0be 7ef9 24bf fb5b 0abf 955e a7be
000000f0: d8c6 213e 6894 373e 36c9 a73e 037a a0be
00000100: 01ee 643d b9a1 9abe 19f0 30bf 2366 a6be
00000110: 5b1f e3be b612 31be 87c0 45be 0731 623e
00000120: 6bfa cbbe 022a 8fbe ce76 9cbe 6631 a53e
00000130: 44ff 983c 6426 12bf 0eee 163d a56d 86bc
00000140: 75c3 5abf c2d6 17bd d4be 0e3e 8fdc 77be
00000150: adf9 41be 038b b63e a043 e9be 2e94 aabb
00000160: 1a4f 04bf 1657 a03e 154d 1f3e 6d36 8abe
00000170: 3756 b2be 57ba f23c a6ce b3be d8ec 53be
00000180: f6d9 dbbe 485d 333e 3440 b0bd 321e a5be
00000190: d8ff aabe 69a4 6dbe 6bc9 d0be 511e ffbe
000001a0: b005 bbbe 45cb 403e b54a e7bd 918f 1abf
000001b0: 4312 a43e 8f42 9e3d 9a4a 9dbe 6adb 04bf
000001c0: 85e8 98be 19b9 4ebe 90a0 b8be cc51 49bd
000001d0: 756e 68bf 3aff ccbe 31c2 5abe 4867 92be
000001e0: 7313 013f 7e8f d2be 77ca 06bf 2e74 14bf
000001f0: fdb4 e6bd 0319 d6be bb9b d0bd 0fac 063f
00000200: d954 15bf efc5 f1be 9eab e3be 2fb7 a3be
00000210: 3443 bfbe e663 04bf 5a32 2cbf f37c 74bd
00000220: 39d8 c13e be51 97be d22f e93d a365 90bd
00000230: f274 f73d 680b cfbd 61a8 98be 0f73 183d
00000240: 5d52 d83e 21c6 43be 698c 03bd 9ab9 cebe
00000250: 2097 97be f0ac 3ebe f5d6 a0be b2f8 c0be
00000260: 2aae 833e 184f debe aeca 40be ff5a 07be
00000270: 4abf 73bf 148e 0b3e 51a8 0dbf 422a b2be
00000280: 4dd4 0fbe 5a6e a1be 7709 86be b963 40bd
00000290: 8c18 48bd ccb2 01bf 48c0 eabd 0bad b9bd
000002a0: fd9c d83e c494 54be 747b 453e d45e 84be
000002b0: 8bba a43d 1eec c4be 7654 0ebf 8a20 7dbc
000002c0: 81f7 fcbe 467c 213e 1dde c2be 9c23 bfbe
000002d0: 7a13 a6bd f272 eebd fb9c 12be e602 cbbd
000002e0: e5c4 06bf ca09 afbe bdfc 36bf 98e3 fa3d
000002f0: c452 9fbe a614 2bbe 1802 d1be b866 1abf
00000300: 2e59 ec3d 7125 4c3e 9c43 0abf 6f13 88bc
00000310: 7aea a3be 3dc8 c4be f329 4cbd fbe2 6cbe
00000320: a810 1f3e 38f1 1f3f b944 6dbd 9b7e 09bf
00000330: 0c87 d73e 41a3 07bf 8ac9 a3be e78e e0bd
00000340: a94f dfbc ef09 923e 363b 18bf 5a46 a03e
00000350: 5b05 08bf 0939 84bd c8ce c9be e520 8c3e
00000360: 7171 783e b8e4 d4be e24c dfbd 4062 7b3d
00000370: 0683 263d 9dfa 8ebe 6dff 343d 3a3a 503d
00000380: 160e ddbe f695 ad3e 243b 7dbd 0e47 98be
00000390: 3c99 6ebe aa02 f8bd 5c9b 90be ff2f e3be
000003a0: 0a69 acbe 17b8 963e fdc9 b4bd 190e 2abe
000003b0: 6c73 75bd efd7 8ebe 9717 c7be 9c10 e3be
000003c0: c17d e3be 3da6 683e 1a29 6ebe 198d 99be
000003d0: 0d84 56bd a3d1 ec3d bec7 c7be 1ad1 f7bd
000003e0: 2830 3ebe e594 0abf 5ddc 58be b2e0 18bf
000003f0: c33d c9be be5a 01bf 72d1 4dbe 0945 fbbe
0.05526338 -0.42102048 -0.2295217 -0.5961562 0.067286715 -0.2901039 -0.16742635 -0.15391086
-0.5634915 -0.3947662 -0.53880596 -0.19536385 -0.4262928 0.11434771 0.45924205 -0.6329876
-0.4634541 -0.16278249 -0.6259669 -0.3276773 -0.4052656 -0.34609383 -0.09878771 -0.3847395
0.3609711 -0.4652143 -0.4651174 -0.22232956 0.045503434 -0.66136146 -0.1240462 -0.3235412
-0.29011267 -0.09033283 0.20982254 -0.7219741 -0.5176026 0.037090838 -0.057294223 -0.3389481
-0.18224664 -0.41020703 -0.0007677585 -0.5266699 0.40738526 0.4595807 -0.47702602 -0.24265957
-0.29728866 -0.3930828 0.14033602 -0.25589 -0.5075388 -0.68337226 0.042823292 -0.44986445
-0.40647787 -0.64443195 -0.540466 -0.32689348 0.15798509 0.17927706 0.327707 -0.31343088
0.05589104 -0.3020151 -0.6911636 -0.324998 -0.4435986 -0.17292294 -0.19311725 0.22089015
-0.3983949 -0.27961737 -0.3055939 0.3226425 0.018676408 -0.5708983 0.03684812 -0.016409704
-0.85454494 -0.037070043 0.13939983 -0.2420523 -0.189429 0.35652933 -0.45559406 -0.0052056527
-0.516832 0.3131644 0.15556748 -0.2699465 -0.34831402 0.02962987 -0.35118598 -0.20695817
-0.42939728 0.17516053 -0.08605996 -0.322496 -0.33398318 -0.23207249 -0.4077867 -0.49827817
-0.36527777 0.18827541 -0.11293546 -0.60375315 0.32045183 0.07727539 -0.3072098 -0.518973
-0.29864898 -0.20187797 -0.3606 -0.049150273 -0.90793544 -0.40038472 -0.2136314 -0.28594422
0.504203 -0.411251 -0.52652687 -0.57989776 -0.112649895 -0.41815957 -0.10185953 0.5260629
-0.5833259 -0.47221324 -0.4446687 -0.31975695 -0.3735596 -0.5171493 -0.6726433 -0.059689473
0.37860277 -0.29554552 0.11386074 -0.07050636 0.120828524 -0.101095974 -0.29815963 0.037219103
0.42250338 -0.19118549 -0.032116327 -0.40375978 -0.29607487 -0.18620658 -0.31414 -0.3768974
0.25718814 -0.4341972 -0.18827316 -0.13218306 -0.9521376 0.13628417 -0.55334955 -0.34797865
-0.1404583 -0.31529504 -0.26179096 -0.046970103 -0.048851535 -0.5066345 -0.11462456 -0.090662085
0.42307273 -0.20759875 0.19285375 -0.25853598 0.08043393 -0.38461393 -0.5559763 -0.015449652
-0.4940758 0.15770063 -0.38060084 -0.37331855 -0.081091836 -0.11643018 -0.14317696 -0.09912662
-0.5264419 -0.34187156 -0.714794 0.12250441 -0.31117833 -0.16707096 -0.4082191 -0.60312986
0.11540447 0.19936158 -0.54009414 -0.01661083 -0.3201483 -0.3843402 -0.049844693 -0.23133461
0.15533698 0.62477446 -0.057926867 -0.5370881 0.4209522 -0.5298348 -0.319897 -0.109647565
-0.027259665 0.28523204 -0.5946535 0.31303674 -0.5313317 -0.06456191 -0.39415574 0.27368847
0.24262024 -0.4158075 -0.10903336 0.061372995 0.040652297 -0.27925578 0.044188906 0.05083678
-0.4317481 0.33903474 -0.06182398 -0.2974171 -0.23300642 -0.12109883 -0.2824353 -0.44372556
-0.33673888 0.29437324 -0.08827589 -0.1660694 -0.059924528 -0.2789912 -0.38885185 -0.4434861
-0.4443188 0.22719665 -0.23257867 -0.2999046 -0.052372027 0.115634225 -0.3901958 -0.1210043
-0.18573058 -0.54133445 -0.21177812 -0.5971786 -0.39304933 -0.50529087 -0.20099428 -0.49076107

weight f4 [256, 256]
00000000: 502d d9bd f892 573c 6b5f 5cbb 502b 47bb
00000010: 08f7 0dbc 6e07 70bd 112d 293c 22c0 893c
00000020: 45fd d4bd 8715 0abd 7347 213d 64dc e0bc
00000030: b0e8 83bc 1f1a 69bd bcbd 103c 5e11 a8bd
00000040: e580 33bd 0ffb 7dbd f147 36bd 24e2 97bd
00000050: 0010 8bbd 5eb9 17bd 1f53 c1bd 8194 423d
00000060: 547c 98bc 8374 6d3a 49fe 413d e099 83bd
00000070: c453 07bd 7459 fbbb bbe6 e13c 1cc7 2abd
00000080: 5a2f 53bd a317 c2bd 505d b2bd d84b ed3c
00000090: f47c 083c c288 bfbd 513a d8bc 8dc1 f2bc
000000a0: 4bd1 713c be8e 033d 9134 8dbc 535e b23c
000000b0: f6b9 b23c 88e0 973c 7c23 9ebd 4b27 0d3c
000000c0: c868 a2bd f0aa 0938 ef4a c4bc 743f cabd
000000d0: 1a75 4cbd 563d 8a3c 9d75 4a3d 1ba1 1abd
000000e0: 7b6c 8f3c 367e 0cbd 3570 41bd 7e6e 8ebd
000000f0: 1864 483d 9545 1a3b e6ec cebb fba7 59bd
00000100: d095 cdbd ca74 f3bc eaa9 6dbd 2011 eebc
00000110: 747f 56bd d81d b439 6182 5bbc 83a1 11bc
00000120: b8a6 9a3c 2d7c 113d 3004 923c a41e 2ebc
00000130: 141b 1ebd 3939 073d b58f eebc bf55 513d
00000140: fa13 d03c 7dc6 11bd 4d2a 68bd b6d9 ffbc
00000150: 989a b6bd 83f3 6dbd bef6 0f3d e494 e8bc
00000160: 077e 48bd 9b9e 0dbd 4c43 99bd 17b0 03bd
00000170: 4278 273d 1834 7ebd c2dc 993d 71d5 94bc
00000180: 746b 8fbd 7698 083d c25f bebd b7b1 52bb
00000190: 77c3 c23b c014 32bd 99c6 c3bb 5622 8cbd
000001a0: 80f1 a4bd 7b4a 92bb bfc6 a6bd ddeb 94bd
000001b0: e1c7 d33a 7ae9 25bd 5284 37bd 8593 ed3c
000001c0: a608 42bd 6436 94bd 3261 ddbd 06fc 6abc
000001d0: 6491 11bd 7b88 a3bc d5f6 6b3c e732 92bd
000001e0: 987e e3bd c126 983c f107 11bd 54b7 8fbd
000001f0: d364 38bd 285a 3b3d a814 e43c ff0d e1bb
00000200: cb05 83bd 34fa 7d3c ef8b 4bbd d51c 80bc
00000210: 48ec 16bd 3e43 20bd d075 54bd 15f9 653c
00000220: aa2b d33b 4e53 23bd 263a 193d 648c 2cbd
00000230: 2ebb 0fbd cb39 bbbd 4261 29bd 55b6 93bc
00000240: 7951 abbc 1fcd 3a3d eccd bbbd e2a4 00bd
00000250: 946a 19bd 7982 543b 0fa1 a6bd 6023 5ebb
00000260: 999c 98bc e2cc 293c 01e4 94bd 93b9 3e3a
00000270: afe9 003b fd6f 9c3c fdce cdbd 1dd3 16bd
00000280: 421f bebc efb6 7abc df3d afbd 80ad f33c
00000290: 0787 6a3d 4120 1f3c 41f6 abbc 0b81 b3bd
000002a0: 7404 d3bc bfec 21bc 6822 3fbc f726 6fbd
000002b0: af0e 5ebc a5ba 9b3c b600 7bbd 9c9b 3d3d
000002c0: b444 d2bd 2b83 caba 34d1 2e3d fee4 63bd
000002d0: e75e 56bd ff34 4b3c 76f7 1cbd 87f4 ea3c
000002e0: a69e 0bbd 2e88 9abc 9a65 763c cf28 aa39
000002f0: d64a 26bd efd6 9abd 045a 48bd fdfa eb3c
00000300: 75ed af3b bcb7 81bd 2295 fa3c ffdf a6bc
00000310: d574 b03c 56e7 c3bd 8771 d4bc 6514 8f3c
00000320: bc05 6dbd 3f0f dabd 1d2b b4bd 07f3 c3bd
00000330: a4e7 93bc aa19 bd3c 9496 e939 b18e 59bc
00000340: 94f1 6b3c 7094 35bd c6af 6ebd df19 6cbd
00000350: 3202 48bd cf16 febc aedb babc 8de8 d73c
00000360: af57 a6bd c6b4 9abd 9e12 63bd c913 b6bc
00000370: 2345 96bd 8856 52bb e151 d9bc 2543 6cbd
00000380: a335 38ba 7a76 b2bb d4c6 61bd dbd3 b2bc
00000390: a6f0 1bbc aae2 31bd c707 79bd 6739 83bc
000003a0: 7558 393a 9ac4 d9bc 0a69 45bd d230 4ebd
000003b0: a6ff 39bd a2f3 babd d02d 203b ff6b 94bd
000003c0: d0d0 853c dac8 36bd b8b6 8cbd e0f6 abbd
000003d0: 4adb ffbc 303c 55bd 1a30 95bd 8e71 20bd
000003e0: 8db9 3ebc d621 fcbc f143 143d af52 2f3d
000003f0: aae6 63bd d22c 0a3d a990 57bd c62b 20bd
-0.10604346 0.013157599 -0.003362621 -0.0030390806 -0.008664854 -0.058600836 0.010325686 0.016815249
-0.1039987 -0.033711936 0.03937478 -0.02744884 -0.016102165 -0.056909677 0.008834299 -0.082064375
-0.043824095 -0.062007006 -0.044502202 -0.0741618 -0.06790161 -0.037042014 -0.09439682 0.047504906
-0.018613972 0.0009058194 0.047361646 -0.06425834 -0.03303887 -0.0076705758 0.027575841 -0.04169379
-0.05155883 -0.094771646 -0.08709204 0.02896683 0.008330572 -0.09352256 -0.026394995 -0.029633308
0.014759372 0.03211855 -0.01723698 0.021773493 0.021817189 0.018539682 -0.07721612 0.008615325
-0.07930142 3.2822543e-05 -0.023961512 -0.09875384 -0.049916364 0.01687495 0.04942857 -0.0377513
0.017507782 -0.03430005 -0.04722615 -0.069546685 0.04892358 0.002354001 -0.0063148616 -0.053138714
-0.1003834 -0.029718775 -0.05802337 -0.0290609 -0.052367643 0.0003435451 -0.013397784 -0.008888605
0.018878326 0.035518814 0.017824262 -0.0106274225 -0.038600042 0.033013556 -0.02912126 0.051107164
0.02540015 -0.035589684 -0.056680966 -0.031231742 -0.08916205 -0.05809356 0.03514742 -0.02839131
-0.048948314 -0.034575086 -0.07483539 -0.032150354 0.04088617 -0.0620614 0.07512809 -0.018168183
-0.07002917 0.033348523 -0.09295608 -0.0032149383 0.0059437114 -0.04347682 -0.0059746024 -0.068424866
-0.08053875 -0.004464445 -0.081433766 -0.0727155 0.0016157591 -0.040505864 -0.044803925 0.029001007
-0.04737153 -0.07236937 -0.10809554 -0.014342314 -0.035539046 -0.01996254 0.014402111 -0.07138615
-0.1110813 0.018573167 -0.035407964 -0.07017389 -0.04501803 0.045740277 0.02784188 -0.0068681235
-0.06397589 0.015501548 -0.049693998 -0.015638748 -0.03684643 -0.039126627 -0.051870167 0.014036437
0.006444414 -0.039874367 0.03740897 -0.042126074 -0.035090618 -0.091418825 -0.041352518 -0.018031279
-0.020912873 0.045605775 -0.09170136 -0.031407245 -0.037455156 0.00324264 -0.08136188 -0.0033895597
-0.01862936 0.010363789 -0.07270051 0.00072755775 0.0019670536 0.019096369 -0.100492455 -0.036822427
-0.023208264 -0.015302404 -0.08556723 0.029745817 0.05725768 0.00971228 -0.020991446 -0.08764847
-0.02575896 -0.009883105 -0.011665918 -0.05838677 -0.0135533055 0.019009897 -0.061279975 0.04629098
-0.1026701 -0.0015450468 0.04267998 -0.055638306 -0.0523366 0.012402772 -0.038321935 0.028681053
-0.034086846 -0.018863764 0.015038872 0.00032455332 -0.040598713 -0.075605266 -0.04891397 0.028806204
0.0053688833 -0.06333873 0.03058869 -0.020370482 0.021540085 -0.09565608 -0.02593304 0.01746578
-0.057866797 -0.10647439 -0.08797286 -0.09567838 -0.01805479 0.023083527 0.00044553413 -0.013278649
0.014400858 -0.044331014 -0.0582731 -0.05764186 -0.04883022 -0.031016735 -0.02280983 0.026356006
-0.08122193 -0.07554011 -0.055437677 -0.022226231 -0.073374055 -0.0032095034 -0.0265283 -0.05768122
-0.00070270355 -0.0054462524 -0.055121258 -0.021829536 -0.009517824 -0.043429054 -0.060798433 -0.016018583
0.0007070371 -0.026583005 -0.048195876 -0.050339527 -0.04540982 -0.091285005 0.002444137 -0.07247161
0.016334921 -0.04462514 -0.06870788 -0.08396697 -0.031232495 -0.052059352 -0.07284565 -0.039170794
-0.011640918 -0.030777853 0.036197606 0.042803463 -0.0556399 0.03373415 -0.052628193 -0.039104246

bias f4 [256]
00000000: fab1 c5bd d76b f6bd 0ec8 26bd 8394 75bd
00000010: d71e 08bd 70ab d5bc a0bb bebd ea68 d03c
00000020: 2102 e03d 0818 d43b ce9e b9bd a9cc 24bc
00000030: f2ca 3bbd 53d8 98bd 81e1 9b3b b18d 85bd
00000040: 2f20 5f3c b06c 74bd 3e3c b0bd 088d 45bd
00000050: d1f2 26bd 261a f7bc f557 123e 7676 f0bc
00000060: 2eae 9abc 2fd4 82bd 7c06 45bd d44b bd3c
00000070: 8183 03bc c14c 96bd 78e3 dfbd 42e1 c6ba
00000080: 4aee e8bd 2d18 733b daa6 debd ee07 c3bd
00000090: 8a23 b3bd 6854 4dbd 292b 0cbe 6c12 2d3c
000000a0: 8098 23bc 5cca 53bd 00cd 99bd dc57 00ba
000000b0: 9242 28be 7dfc 0e3e 73eb 3cbd 6476 30bd
000000c0: 60db 5cbc c03d 213b 5198 0fbd 4048 98bd
000000d0: 447e a1bd be67 f5bd a767 13bc 1fb6 6abd
000000e0: 315b 38bd d973 6dbd 8485 85bd 053c 91bd
000000f0: 7637 ebbc 7c4b dbbe 2535 dc3d f8bf 01bc
00000100: 2307 2d3e 6559 273d 34c1 173d c78c a3bd
00000110: d27d 7fbc 6f24 ccbd 09c6 4abd 3901 b7bd
00000120: d321 d5bc e99c b2bc 225a bbbd 2015 f53c
00000130: a0aa fe3d 4ea2 033c 1f92 3bb8 df8c 84bd
00000140: d282 89bd 58cf c9bc 286a 1bbe 12b6 22be
00000150: 153c 3ebd 756a 21bd c2dc 4cbd d049 4dbc
00000160: 8353 0ebc 4da6 32bd 0afc 1bbd 9dc1 abbd
00000170: 909f 33bd ce92 97bd 6ace 53be 4a01 84bc
00000180: 32e1 a6bd 963e a7bd c2c5 ddbc 8403 bbbd
00000190: 480c 95bd ff68 8fbd 1820 d0bd b15a abbd
000001a0: b79e a9bc 046b b73c adca b6bc 7c58 27bd
000001b0: d7ee e0bd 3a06 6fbd 16dd cbbd 70bb 1fbd
000001c0: 0ac8 05be 7e66 9a3d 1ef1 073e a2d6 24be
000001d0: 96f4 6d3a 0ea5 a1bd d051 adbd de54 33be
000001e0: fbdb d8bd 721f ddbd 6c09 9dbc 8590 7ebd
000001f0: a013 ebba cf24 47bd e6be 8fbe ee40 4cbe
00000200: 91ed 9ebd 1179 cdbd 1c35 da3b 5d3d 93bd
00000210: ff59 d9bc b1c6 e1bd 119b 2cbc 6991 95bd
00000220: 3935 e1bd 0f73 873d d269 84bc 9c65 9abd
00000230: 764b a0bd 1b76 323d d09f 85bc a90c c9bd
00000240: 0415 f4bc c56a 3fbd 9047 83bd 6c15 6dbd
00000250: 45bc 0ebc 1637 6ebd c164 44be 61a7 c3be
00000260: d878 3abc 40be 6dbd 3640 7bbd b479 683c
00000270: 22c1 bf3c 155a bbbc 8ad7 cbbd 9ddf 963c
00000280: 9f44 743c 5690 b2bc dd8c e7bd f663 2b3d
00000290: aafe a0bc 0fbc bbbd 6ca2 bfbd a64b fabd
000002a0: 3064 50bd 272e f4bc 0a9a 94bd deac 3bbf
000002b0: c32b 9cbd 8e6b 2abd 62d9 023e a9d9 95bb
000002c0: ea1e 2abd 59c2 e6bc 2f95 08bd 0656 543d
000002d0: 3c19 e3bc 6f33 96bc 5129 26bc 5dfd af3e
000002e0: 99f3 813e ad99 56bd f377 aebd b792 08bd
000002f0: 78d4 3bbc 43dc d43b e7cf d2bc db65 dabc
00000300: 2227 ec3b 49a6 ca3c 898c 063c 2046 7dbd
00000310: 265b 23bd 8c73 063e a4a7 94bd b4be fd39
00000320: 7fec 1b3c 0b8c 4ebd c28d 82bd 6e04 193c
00000330: 2c0a f3bb 64e7 953c bf61 a5bd c1f6 a4bd
00000340: ca5f 80bc e23c 6ebd 467a 41bb 6228 43bd
00000350: 639a eebd ed4e 5ebd 9a24 f0bc a7e1 b8bd
00000360: 50e2 c23d 3e6f debd 09b6 fbbd 0feb 19bd
00000370: 0364 a5bd cd9d d939 cb40 86bd f192 963b
00000380: c25e 90bd 8682 cfbe 60ba 64bd 0ddf 613e
00000390: 172a b6bc 4e2e 0dbc e92c 9abd a3fa c3bd
000003a0: b075 acbd cfc7 b3bd b5a4 3cbe 5470 4dbd
000003b0: f3a8 efbd d9dd 9cbe 7863 aebd f895 1b3e
000003c0: 1380 6fbc 8f25 82bd f148 0ebe 915a adbc
000003d0: d01f a5bd d084 e1be 66c4 d2bc 1d97 a0bc
000003e0: 90c5 e6bd 304d 65bd b7cc a6bd 7ed1 fc3c
000003f0: 8993 0bb9 38a6 8bbd faa9 693d 6a04 f5bd
-0.09653087 -0.120322876 -0.04071813 -0.059956085 -0.033232536 -0.026082724 -0.093131304 0.025440652
0.10937906 0.0064725913 -0.09063493 -0.01005856 -0.04584784 -0.074631356 0.004757107 -0.06521166
0.013618513 -0.059673965 -0.0860524 -0.0482302 -0.04075891 -0.030163836 0.14291365 -0.029353362
-0.018881883 -0.06388127 -0.048101887 0.023107447 -0.008026958 -0.073388584 -0.10932058 -0.0015173333
-0.11373575 0.0037093267 -0.10871668 -0.09522997 -0.08747013 -0.050129324 -0.1368834 0.010563474
-0.009985089 -0.051706657 -0.07509804 -0.00048959046 -0.16431645 0.13963504 -0.04612298 -0.043081656
-0.013480037 0.0024603456 -0.03505737 -0.074356556 -0.078854114 -0.11982678 -0.008996881 -0.05730259
-0.045008842 -0.05797181 -0.06519607 -0.07091526 -0.02871297 -0.42831028 0.10752324 -0.007919304
0.16897254 0.040856738 0.037049487 -0.079858355 -0.015593963 -0.09967887 -0.049505267 -0.0893578
-0.026017105 -0.021803336 -0.09148051 0.0299173 0.12434888 0.008034302 -4.472036e-05 -0.064721815
-0.06714405 -0.024635002 -0.15177214 -0.15889767 -0.046444017 -0.039408166 -0.05001522 -0.012529805
-0.008686903 -0.043615628 -0.03808216 -0.08386538 -0.043853343 -0.07401048 -0.2068421 -0.016113896
-0.08148421 -0.08166234 -0.027071837 -0.0913153 -0.07277733 -0.07002448 -0.101623714 -0.083669074
-0.020705564 0.022389896 -0.02231344 -0.04085587 -0.10983055 -0.058355547 -0.09954278 -0.038997114
-0.1306459 0.0753908 0.13275573 -0.16097501 0.00090772787 -0.0789281 -0.0846287 -0.17512843
-0.10588833 -0.10797013 -0.019169532 -0.062149543 -0.0017934926 -0.048619088 -0.2807533 -0.19946644
-0.07760156 -0.10032857 0.006659163 -0.071894385 -0.026532171 -0.110242255 -0.010535018 -0.073031254
-0.109964795 0.066137426 -0.01616374 -0.07538912 -0.07826893 0.043569665 -0.016311556 -0.09816868
-0.029795177 -0.046732683 -0.06410134 -0.057881758 -0.008711879 -0.058158003 -0.1917906 -0.38213637
-0.01138135 -0.058042765 -0.061340533 0.014189173 0.023407523 -0.022870103 -0.0995322 0.018417174
0.014908939 -0.02179734 -0.113061644 0.041843377 -0.019652683 -0.09166729 -0.093571514 -0.1222146
-0.050876796 -0.029807163 -0.07255943 -0.7331065 -0.076255344 -0.04160648 0.12778237 -0.0045730663
-0.04153339 -0.028168844 -0.033345398 0.05183985 -0.027721994 -0.018335072 -0.010141687 0.34372988
0.25381163 -0.05239265 -0.08518972 -0.033343043 -0.011464231 0.006495984 -0.025733901 -0.026659897
0.0072068134 0.024737494 0.008212217 -0.061834455 -0.039881848 0.13130015 -0.072585374 0.00048398005
0.009516834 -0.050426524 -0.063746944 0.009339435 -0.007416984 0.018298812 -0.08075284 -0.08054877
-0.015670676 -0.05816353 -0.0029522344 -0.047645934 -0.11650541 -0.05427449 -0.029314328 -0.09027415
0.09515822 -0.108610615 -0.1229058 -0.037577685 -0.08075716 0.00041507036 -0.06555327 0.0045951535
-0.070493236 -0.4052927 -0.055841804 0.22057743 -0.022236867 -0.008616997 -0.07528097 -0.095692895
-0.084208846 -0.08778345 -0.18422206 -0.050155953 -0.117021464 -0.30638006 -0.08515066 0.15193927
-0.014617938 -0.0635482 -0.13895012 -0.02116135 -0.080627084 -0.4404664 -0.025728416 -0.019603306
-0.11268151 -0.055981815 -0.08144515 0.030861612 -0.00013311034 -0.06818813 0.057046868 -0.119637325

weight f4 [12, 256]
00000000: 566c b63b 4b62 873c 2a57 f23c 844a dfbc
00000010: 4817 c93c cc9c 883c 96a8 d53c 9d24 19bc
00000020: 6287 c3bb 9211 6fbb 5dea 9d3a 45d3 ed3c
00000030: 4803 df3c 5f6c 4ebd 4aeb ab3a c846 22bd
00000040: 571c 17bd a433 acbb 5cd9 ac3a 9202 8c3c
00000050: 43ff 4dbd 7b4b d23a 9353 1dbb 49a0 113c
00000060: 7c59 b2bc 7c10 7939 d88e 0d3d 8c36 28bd
00000070: cae9 dbbc 662e 82bc 1902 013c 037e dbbc
00000080: 9555 e83a fa2e a4bc 028c 083d 188f 383c
00000090: 4450 e83c 5154 d53c 7cd0 063d 129b 01bd
000000a0: 4ca4 f73b 78a0 aab9 5468 aeb9 9963 23bb
000000b0: 3640 4dbc bcf2 10ba 7dbb d4bc f435 98bc
000000c0: ddd6 efbb dba3 383c a967 e93c 18a2 fbbc
000000d0: cc93 d8bc 8c0e 2f3c 4da7 f53b 47ea 03bd
000000e0: 91ad 883c 40c9 6fba ac46 243d 550e d73b
000000f0: d34c 903d 54e2 1638 6f38 2fba 28e0 76bb
00000100: 5785 01bc c310 48bb 8b4a b63b 38ed c23c
00000110: 2de9 543d d388 093d 122a 453b 181c 22ba
00000120: 5271 1d3d bfb5 873c d777 e1bc 088c 02bb
00000130: 28f2 563a 5c80 c6bc b0b5 87bb 6182 8f3d
00000140: fad5 ae3c 8e0f 1cbd 58eb f13c 5cd4 e03c
00000150: 923d 5dbd ac7e bdbb b403 8eba ff74 bdbc
00000160: 6fb7 e6bc b5fc 04bd 47f4 253b a98a 34bc
00000170: be69 943c bbfd 69bb 7aae 2e3a a1cf 02bd
00000180: ce11 a23c 8bd5 a3bc 91c5 96bc f082 103c
00000190: 0fdf 53bd 02ce 073d 8af7 c0ba 4919 3fbd
000001a0: 22e4 88bc af6b bbbb 11f2 50bd a82a 733c
000001b0: 20a9 3f3b d626 dcbc 035e 163d 75f2 d7bb
000001c0: 6722 14bc d4a6 f93a 197f f83b b3ce c33c
000001d0: bb4b d33b 71db 1ebd bca2 9a3c dd27 97b9
000001e0: 4b98 7f3b 3abb 09b8 3ac4 013c 0f19 eebb
000001f0: ff0c 1cbc 2067 653d e062 0a3b 09a8 a63a
00000200: 076f b1bb 3422 de3c fb61 c8ba 814d f0bb
00000210: a69e 27ba e389 dbbb f10f f03c fec1 fb3c
00000220: 150a 7ebb 56e1 62bc 74e3 503c 8728 96bc
00000230: 4f68 b53b 48d6 ebba 26a3 e63a 01f8 80bc
00000240: a052 b2bb 675a 653d c45a 40bc 9e29 613c
00000250: d71e d2bb fb53 f1bb 6f91 6eb9 e613 c938
00000260: f314 6abc 27e9 04bc 479e c9ba 0f77 073c
00000270: 0723 823b a51e 273d aa6a 30bb 443a 183b
00000280: be4b 903a 3f8f b53c e090 333b 33ae 10bc
00000290: d58b 1bbc 54af b33b 7102 45bc 54b4 cf3c
000002a0: 113d 9c3c 0282 bebb d582 c739 f8f8 c6ba
000002b0: 0475 103d 3e47 e33b c38e cabb 47e4 0ebc
000002c0: 9b5e 143c 9dc2 5fba 4bec e5bc 8712 1fbc
000002d0: cc54 cfbc c9b7 243d adbf a1bc 9168 b23b
000002e0: e07c 84bb a266 71bb fe65 0abc f6e5 90b9
000002f0: 39a0 dfbb e648 43bc dd76 36bd 753d 8f3a
00000300: 39ea 003d fc46 e5b9 54da 39bb 4eb4 9b3c
00000310: dce7 9b3b a88a 273c 682c 083c 6e7b c9ba
00000320: a3be cf3b 2688 303b 2657 503c a463 21bd
00000330: 0c1f 8d3c a547 5cbc fc8a 5dbd 8352 8b3c
00000340: c0d5 2f3d 8263 6abd 2b51 913c 67d4 7c3a
00000350: 2e59 4f3d 2601 113c f23b fe3c 922c 8dbb
00000360: 9700 0d3a e81e c83a aa39 4bbb 96b4 503b
00000370: 730d e73b 7ed8 843a 2541 ffbb 0f52 fabb
00000380: 4071 30bc d4b8 f839 7a54 88bc 011b 7abb
00000390: 09d0 1f3c 7136 1fb8 03bf 723b 4c4b 493c
000003a0: ce21 2fbc d3c4 223d c3e1 c8bb ef0c be3c
000003b0: 8fdc a039 d3d9 063b 8c62 97bc 69f6 9bbb
000003c0: 028c 863d 9781 08bc 986b b63b 8d89 793b
000003d0: 3bb2 293b 3cb6 3dbb a09b de3b 4b94 ab3c
000003e0: 2475 833b da88 56bb 76ef 583c 0688 7b3a
000003f0: d711 7e3c 2b71 bebb e87b 80ba af11 bbba
0.005567114 0.016526362 0.029582579 -0.027257212 0.024547234 0.01667633 0.026081365 -0.009347108
-0.0059670666 -0.0036478979 0.0012047995 0.029031405 0.027223244 -0.05039632 0.0013116386 -0.039618284
-0.03689226 -0.0052551795 0.0013187337 0.01709107 -0.050292265 0.0016044223 -0.0024006113 0.008888313
-0.021771185 0.00023752631 0.034560055 -0.041067645 -0.026844878 -0.015891265 0.007874035 -0.026793486
0.0017725701 -0.020041931 0.033336647 0.011264585 0.028358586 0.026041182 0.03291367 -0.031642027
0.0075574275 -0.00032544485 -0.00033265597 -0.002493119 -0.012527516 -0.00055293343 -0.025968308 -0.018580414
-0.007319315 0.011269535 0.028491812 -0.03071694 -0.026437663 0.010684621 0.0074967504 -0.032205846
0.016684325 -0.0009147115 0.04010646 0.006562988 0.07045903 3.597357e-05 -0.00066841295 -0.0037670229
-0.007905326 -0.003052757 0.0055630854 0.023794755 0.051980186 0.03357775 0.003008489 -0.0006183996
0.03843815 0.016566155 -0.027522964 -0.001991989 0.0008199536 -0.024231128 -0.004141532 0.0700729
0.021342266 -0.03810077 0.029531166 0.02744501 -0.054013796 -0.0057829227 -0.0010834844 -0.023127077
-0.02816364 -0.032467563 0.0025322603 -0.011019387 0.018116828 -0.0035704214 0.0006663572 -0.03193629
0.01978388 -0.019999286 -0.018404754 0.00882028 -0.051726397 0.03315545 -0.001472221 -0.046654973
-0.016710345 -0.005719624 -0.051012103 0.014841713 0.0029245093 -0.026873987 0.03671075 -0.0065901824
-0.009041405 0.0019046911 0.0075835106 0.023902273 0.0064482368 -0.038783494 0.018876426 -0.00028830665
0.0039000686 -3.2837714e-05 0.007920319 -0.007266171 -0.009524583 0.05600655 0.0021116063 0.0012714873
-0.005414847 0.027115919 -0.001528799 -0.007333458 -0.0006394185 -0.006699787 0.029304476 0.030732151
-0.0038763334 -0.01384767 0.012749542 -0.018329872 0.005536116 -0.0017992938 0.001759623 -0.015743257
-0.0054419786 0.055994418 -0.01174039 0.0137428325 -0.006412368 -0.0073647476 -0.00022751627 9.588133e-05
-0.014287221 -0.0081122285 -0.0015382253 0.008268132 0.0039714607 0.04080071 -0.0026919045 0.0023228088
0.0011008901 0.022163032 0.0027399585 -0.008830595 -0.009493788 0.005483547 -0.012024508 0.025354542
0.019072087 -0.005813838 0.00038053715 -0.00151804 0.035267845 0.006935983 -0.0061815693 -0.008721418
0.009055759 -0.00085357745 -0.028066775 -0.009709007 -0.025308989 0.040214334 -0.019744718 0.005444594
-0.0040432066 -0.0036834856 -0.008447168 -0.00027637155 -0.00682452 -0.011919236 -0.04454695 0.001092835
0.031473372 -0.0004373117 -0.0028358893 0.019006874 0.0047578644 0.010225929 0.0083113685 -0.0015371868
0.0063398643 0.002693662 0.01271609 -0.039401665 0.017226718 -0.013444816 -0.054087624 0.017007118
0.042928457 -0.057223804 0.0177389 0.00096446875 0.050622158 0.008850371 0.031034444 -0.0043082917
0.0005378811 0.0015268 -0.0031009712 0.003184592 0.007051164 0.001013532 -0.0077897483 -0.0076391767
-0.010769188 0.00047439954 -0.016641844 -0.0038163068 0.009754189 -3.7959257e-05 0.0037040121 0.012286019
-0.010689212 0.039738487 -0.0061304285 0.023199527 0.00030681907 0.002057661 -0.018479608 -0.004759599
0.06569673 -0.008331678 0.0055670254 0.0038076371 0.0025893587 -0.0028947731 0.0067934543 0.020944735
0.004011767 -0.0032735378 0.013240686 0.0009595159 0.015507183 -0.0058118305 -0.0009802552 -0.0014272238

bias f4 [12]
00000000: d833 b03a b214 b8ba fe89 03ba 10f8 b237
00000010: 417e d3ba b665 a4ba f628 d63a 8455 82bc
00000020: 345c 92bd 6e96 1abe 691c f63d 31d8 4b3a
0.0013443185 -0.0014044254 -0.0005017816 2.1334767e-05 -0.0016135649 -0.0012542519 0.0016339112 -0.015909918
-0.071464926 -0.15096447 0.120171376 0.00077760505
