Experiments/Hopper/TrainedModels/singlestep_flow_dynamics_hopper.pth (torch, 295992 bytes, 6 tensors)

weight f4 [256, 15]
000000 7b d6 a6 3a a2 d5 87 bd 11 38 14 bd 1f 6c bb bc
       0.0012728715 -0.06632544 -0.03618628 -0.022878705
000010 66 93 d0 39 35 64 89 3e 90 7b 0c 3e a2 9a 04 3e
       0.00039782672 0.26834264 0.1371901 0.12949613
000020 af 38 69 be af cd ad 3d 9a d4 77 3d 1d f8 97 3d
       -0.2277553 0.08486497 0.060505487 0.07420371
000030 03 c7 2d be e7 47 bc 3d 5a 8e 46 bf 1a 77 a6 be
       -0.16970448 0.09193402 -0.7756096 -0.32512742
000040 ac 3c 1f bf ef 37 15 bf 57 d1 12 bc 5b 1d ca 3e
       -0.6220195 -0.5828847 -0.008961043 0.3947552
000050 4a 39 c1 be 29 f4 3e bd 72 df 25 be 2c 5f 87 bd
       -0.3773902 -0.046619568 -0.16198519 -0.066099495
000060 24 54 0a 3e 94 66 c4 3d 40 48 62 be b2 7a 6c 3d
       0.1350866 0.09589878 -0.22097874 0.0577342
000070 2d ab 22 bd e1 c8 80 be 15 d0 0c bd 2c f6 db be
       -0.039714027 -0.25153258 -0.03437813 -0.42961252
000080 39 2c 89 3d 06 b1 c6 3e df 74 a9 bd 85 bb cb 3e
       0.06697888 0.38806933 -0.082742445 0.39791504
000090 8b 3a 38 be 98 b7 3b 3e e6 48 ba bd 03 2e c1 3e
       -0.17991082 0.18331754 -0.090959355 0.37730417
0000a0 61 35 98 bd 9a 7a a3 3d 77 57 1b 3e 76 21 db bc
       -0.07432056 0.07982369 0.15170084 -0.026749354
0000b0 f5 45 4d be 5a bc 9e bb 27 09 d8 be 3a f4 a1 bf
       -0.20046218 -0.0048442306 -0.42194483 -1.2652657
0000c0 eb a6 04 3f fa 1e 63 bf 79 a1 31 bf 46 d2 3b 3e
       0.51817197 -0.8871914 -0.6938701 0.18341932
0000d0 04 01 85 be 4a 55 b2 bd 50 6f 45 3e 89 8c 0e 3e
       -0.25977337 -0.08707674 0.19280744 0.13920797
0000e0 5f 1e 71 bc 86 8c d0 bc 72 b2 6f 3e 8e 4b 8c be
       -0.014716714 -0.025457632 0.23407915 -0.27401394
0000f0 be 43 91 be 04 d2 c1 be 3a 12 c6 bd 46 81 be be
       -0.28371996 -0.37855542 -0.09671445 -0.37208003
000100 5e 9b a0 3e c4 2d ba 3d d4 6b 79 bd f4 fa 26 be
       0.31368536 0.0909076 -0.06089385 -0.16306669
000110 90 4d 2d 3e 2e 78 7a bd e4 bd 9e bd 94 14 74 3c
       0.16924119 -0.06114977 -0.077510625 0.014897484
000120 cd 62 7a be 6c 16 8c 3e 03 b5 8e be a6 26 9c 3b
       -0.24451752 0.27360857 -0.27872476 0.0047653494
000130 9b b5 82 3d 5e 6b 65 be dc 1e fb bd 96 03 97 be
       0.06382295 -0.22404239 -0.12261745 -0.29494923
000140 12 21 16 3f 68 49 55 3e 44 ae 54 3e 5b 2c ae 3d
       0.5864421 0.20828784 0.20769602 0.08504554
000150 be 26 c9 bd 26 af 15 bd f2 3b cc bb 7b 47 b3 3e
       -0.098218426 -0.036543988 -0.006232732 0.35015473
000160 8b b3 1d 3e 42 b9 2f 3e 77 a7 6a bc a4 37 0f 3e
       0.15400521 0.17160514 -0.014322153 0.13986069
000170 47 f0 f5 be c3 e9 e5 bd 8a 57 8c 3f 07 97 63 3f
       -0.4803488 -0.11226227 1.0964215 0.88902324
000180 18 da c6 be 49 37 c1 bd 4b e2 bb bd 31 10 6c 3e
       -0.38838267 -0.09434373 -0.09174021 0.23053052
000190 e7 6a 17 3e 61 1c 84 bd 0d a8 2b 3e 02 86 00 bd
       0.14786874 -0.06450725 0.16763325 -0.0313778
0001a0 12 4b 19 3e ae 51 6d 3b f7 34 f7 be 4f cc 1f bf
       0.14970043 0.0036212015 -0.48282596 -0.62421125
0001b0 92 2e 47 3d 8b ad 3a bf 52 49 20 bf 37 11 e2 3c
       0.048628397 -0.72921056 -0.6261188 0.0275961
0001c0 d5 c9 79 bd 6d 6a 10 bd d6 45 a8 bd 27 67 90 3b
       -0.060983498 -0.035257746 -0.08216445 0.004406828
0001d0 ad 9b ce bd 46 e5 2b 3d b5 23 9c bd 45 a9 7c be
       -0.100882865 0.0419667 -0.07623998 -0.24673946
0001e0 f7 26 48 3b 04 00 5f be d6 c1 53 3e e0 f6 cd bd
       0.0030540803 -0.2177735 0.20679411 -0.10056853
0001f0 8b a4 8a be 3a d6 9f bf bf 52 8a 3c 04 d0 27 be
       -0.2707866 -1.2487252 0.01688516 -0.16387945
000200 cd cd ee 3d 59 5c 18 bd c1 e6 8e bc 4f b2 ec bd
       0.11660347 -0.037197445 -0.017444016 -0.11557447
000210 7a e5 bd bd 0c 72 1c bc c8 f9 5e 3d df cd 3d ba
       -0.09272285 -0.009548675 0.05443743 -0.0007240455
000220 ce 7a 1e 3e 6b 4d 45 3f 94 69 84 bf 74 7f 7f bf
       0.15476534 0.77071255 -1.034472 -0.99803853
000230 d7 90 72 bf 82 37 da bd af dc 74 bd e7 7f e1 bd
       -0.9475226 -0.106551185 -0.059780773 -0.110107236
000240 c5 2f 10 bb 17 26 e7 3b 87 6d b8 3c 77 02 1e bd
       -0.002200113 0.007054101 0.022513164 -0.03857657
000250 b1 d4 79 bc 55 46 6b bc e3 62 28 be 07 a2 c9 bd
       -0.0152484635 -0.01436003 -0.16443972 -0.098453574
000260 62 e3 72 3f ea 7f 8b 3e f6 bb 94 3d 31 e4 14 bd
       0.9487821 0.27246028 0.07262413 -0.036350433
000270 30 0a 0c bf 8d 38 01 3e f9 9d 9e 3d 46 b6 b6 bc
       -0.54703045 0.12619229 0.07744975 -0.022303712
000280 68 0b 4b be 0a 87 75 3d 06 88 76 be 64 05 22 3e
       -0.1982857 0.059943236 -0.24075326 0.15822369
000290 13 08 8e be 64 fd 00 37 8d da 54 bd ec a6 9f bc
       -0.27740535 7.688392e-06 -0.05196624 -0.019488774
0002a0 71 bd 09 3d 07 e4 ed c0 4c 73 87 bb 70 e8 8e 3b
       0.03362793 -7.4340854 -0.0041336175 0.004361205
0002b0 3b a2 32 ba a1 3e 77 bb 9a bb 5a 3a b4 b8 b1 bc
       -0.00068143354 -0.0037726539 0.0008343995 -0.021694519
0002c0 95 d2 5f b8 94 4d a3 ba 01 3d f6 3c c4 4f 7b 3b
       -5.3363463e-05 -0.0012459033 0.030058386 0.0038347105
0002d0 bb 6a d3 bb 7f 41 87 3e fb 31 39 3f 1d 6f 27 bf
       -0.0064519322 0.26417157 0.7234189 -0.6540392
0002e0 42 74 c2 bc eb 29 f2 be 86 ce 56 be 9f 5c 21 be
       -0.023737077 -0.47297606 -0.2097722 -0.15757988
0002f0 49 4f 6b 3c 70 9b 0b 3c 9b 8c 33 3b 1a f7 8d bc
       0.014362165 0.008520946 0.002739704 -0.017329741
000300 8a 91 3a 3e a7 31 1e bd 5a 9e 5e 3d 5d 5f 0b bb
       0.18219581 -0.03862157 0.054350235 -0.0021266558
000310 27 87 fc bc 60 b6 b7 3c 93 bc b7 be d8 83 0e 3d
       -0.030826164 0.02242583 -0.35886058 0.034793705
000320 b6 93 a7 3f 20 c5 ce 3d 62 42 0c bd 6f 0b 35 be
       1.3091953 0.10096192 -0.034242995 -0.17680143
000330 fd d7 34 3e 9e a5 bb 3d bc b8 a4 bd 86 ef 93 3d
       0.17660518 0.09162448 -0.08043048 0.0722342
000340 31 7b 09 3c 81 f0 04 be 8f a5 a3 3a f3 24 92 be
       0.0083911875 -0.1298237 0.0012485253 -0.28543815
000350 9a 99 4d bf ea c6 2f 3f b1 65 dc 3e c6 3a ed 3e
       -0.803125 0.68662894 0.43046334 0.46333903
000360 08 e9 ce bd ea 4e b8 bc 6f ee 6d 3d 4c 83 97 bd
       -0.10103041 -0.022498567 0.058088716 -0.0739809
000370 8f ef 8b bd 4e 8e 04 be 35 5e 09 3c 2f 7d ce 3d
       -0.068328016 -0.1294491 0.008384277 0.100824706
000380 e5 fb 09 bf ec 0e cd 3a bd 6d 2b bd 0d 4d 85 be
       -0.53899986 0.0015644706 -0.0418527 -0.26035348
000390 8f 62 a8 bd 3b f9 3d 41 0d b2 ed ba 27 ff 3c bd
       -0.082219236 11.873347 -0.0018134728 -0.04614177
0003a0 f7 c0 84 bc e4 56 c6 bb 50 86 54 3b 5e 95 25 3e
       -0.016205294 -0.0060528386 0.003242869 0.1617026
0003b0 56 85 8a 39 f4 76 81 bc 6f 8c 43 3e 88 52 17 bd
       0.00026420754 -0.015803792 0.1909654 -0.036943942
0003c0 ca 40 fa 3a f0 ac 56 bb 48 59 c8 be 34 78 bc 3e
       0.0019092795 -0.0032756887 -0.39130616 0.36810458
0003d0 4a 29 00 be 37 02 73 bf 87 c6 eb bd e2 b9 b4 3d
       -0.1251575 -0.94925255 -0.115124755 0.08824517
0003e0 87 b0 86 bc d9 fd 05 be 1f 6f 20 be 51 a5 2c 3e
       -0.016441597 -0.13085116 -0.1566739 0.16859938
0003f0 35 a9 19 be ff d8 1a be 1c 90 6b 3e c1 2e a2 bc
       -0.15005954 -0.1512184 0.23004192 -0.019797685

bias f4 [256]
000000 74 a5 b3 be ec 89 0d bf b9 59 39 be 13 39 1b 3d
       -0.35087168 -0.5528858 -0.18100633 0.037896227
000010 d3 0b bd be ea a6 72 be ad ca 5a bd 0d 9f 20 bf
       -0.36923084 -0.23696485 -0.053415943 -0.6274269
000020 cf c6 2b bf 01 e9 11 bb d7 4f 1e 3d c7 4e 8c 3d
       -0.6710023 -0.0022264125 0.03865036 0.06850963
000030 14 65 d5 be 72 f7 bc bd 3f 14 ba be 66 b4 ad 3d
       -0.4167868 -0.09226884 -0.36343572 0.08481674
000040 b0 23 d4 be f0 9f 63 3e 82 8d c5 3d 3d 57 82 3d
       -0.41433477 0.2222898 0.09646131 0.06364296
000050 c9 5b 82 3e 75 1b 92 be 5f e0 09 be a3 9e 2d 3e
       0.25460652 -0.28536573 -0.13464497 0.16955046
000060 1f 40 73 bd b5 60 c7 be a4 62 df bd 3d 93 17 be
       -0.059387323 -0.3894097 -0.10907486 -0.1480226
000070 4f 14 b2 be a0 de 16 be b1 92 fd be 9c de d8 3e
       -0.3478112 -0.14733362 -0.4952598 0.42357337
000080 b2 91 01 bc d0 82 a0 be 5f eb f1 be 1c e5 a8 be
       -0.007908272 -0.31349802 -0.47249886 -0.32987297
000090 9a e7 04 bf 5d 46 03 bf d5 b8 36 3d 1e 60 1c 3e
       -0.51915896 -0.5127924 0.044609863 0.15271041
0000a0 03 53 5e 3e 5a f4 a0 3e 54 56 bc be 30 e8 a6 3e
       0.21711354 0.31436425 -0.36784613 0.3259902
0000b0 58 90 1c bf 2a 9f c1 be 1c fb 4b be f3 38 40 be
       -0.6115775 -0.37816745 -0.1992001 -0.18771724
0000c0 4e e7 d8 be 17 ae 32 be b9 ca 74 3d d7 1d 5c bc
       -0.4236397 -0.17449223 0.059763644 -0.013434849
0000d0 1d 0f 90 3e 62 cc 02 3e 5d 9c f1 3e 8f 7a 51 3d
       0.2813653 0.12773278 0.47189608 0.05114227
0000e0 0e bc ba be 37 48 44 3e 19 f2 16 3e fd 36 88 be
       -0.364716 0.19168173 0.1474079 -0.26604453
0000f0 58 fd a5 be c0 64 1f be f4 9f c8 be e1 4f 4f be
       -0.32419848 -0.15565777 -0.39184535 -0.20245315
000100 6a 50 5a be ad 65 20 be 98 ed b2 be 1a ea 80 3e
       -0.21319738 -0.15663786 -0.34946895 0.25178605
000110 48 6d 2c be 03 8e ce 3c 47 f4 12 3e bb 59 c8 be
       -0.16838562 0.0252142 0.14350997 -0.3913096
000120 15 6f a8 be ad f3 f8 be f5 23 2a 3e 84 45 8e 3e
       -0.3289725 -0.4862341 0.16615279 0.2778741
000130 d7 5a 91 3e ce c1 21 3f d1 88 aa 3e ae 91 1c bf
       0.28389618 0.6318635 0.33307508 -0.6115979
000140 a1 95 12 3f 0a aa d0 be a3 04 c0 3e 71 18 e9 be
       0.57259566 -0.4075473 0.37503538 -0.4552646
000150 08 e4 9b 3d 18 50 5d be 7a 7a 2d bc 36 73 59 bd
       0.07611853 -0.21612585 -0.010588283 -0.05308839
000160 19 0b a2 3e 1d 73 ec 3e 5c 50 38 bf 02 db b0 3e
       0.31649092 0.46181574 -0.7199762 0.3454209
000170 9b ce b6 3e 8a e7 a9 be 7e 99 eb bd 3f dc 87 3e
       0.35704502 -0.33184463 -0.11503886 0.26535222
000180 12 71 1a bd 7d 7a 9f be 01 ed 09 bf 67 65 06 bf
       -0.03770549 -0.3114814 -0.53877264 -0.5249848
000190 95 3b d3 bd fe 0d 81 be df 1a ad 3e 31 12 20 3c
       -0.10314099 -0.25205988 0.33809564 0.009769962
0001a0 15 d0 df be c7 77 12 3f a4 4e 7e 3d 02 95 d9 be
       -0.43713441 0.57214016 0.062086716 -0.42496496
0001b0 ab fe d0 bd ee 25 0f bf d5 f8 b1 be c9 02 a6 be
       -0.10204824 -0.5591725 -0.34760156 -0.32424
0001c0 0c b9 c6 be 28 b3 e8 be 1d 96 07 be f8 e6 1a be
       -0.38813055 -0.45449185 -0.13240857 -0.1512717
0001d0 3f a3 82 bf 50 a3 58 be 6c 09 e0 bc 50 70 74 be
       -1.0206069 -0.21156049 -0.027348243 -0.23870969
0001e0 fc cf ae be cf 66 95 3e 10 0e 1a 3e 03 19 1c 3e
       -0.34143054 0.2918 0.15044427 0.15243916
0001f0 40 cb b6 be 7f 59 8b be 0f 87 47 3e 4e ab 52 3e
       -0.35701942 -0.27216718 0.19485115 0.2057316
000200 0d af 23 3e 5e 7e f8 3d 7b fe e8 bd c7 bf 43 be
       0.15984745 0.12133478 -0.11376663 -0.19116126
000210 67 00 0b be c8 63 4d be 1f ba a5 3e 9b d2 9d 3e
       -0.13574372 -0.20057595 0.32368562 0.30824742
000220 4c ff ab be 38 7b 1e 3e 0d dc 38 3f 30 4c 82 be
       -0.33593214 0.15476692 0.7221077 -0.2544875
000230 58 1e b6 3e d0 5d bc be 53 df 1a be eb ad 0d bf
       0.35570025 -0.36790323 -0.15124254 -0.553435
000240 73 05 f0 be cb b3 6a 3d fe 3b 4d be e2 4a 42 bf
       -0.46879157 0.05730037 -0.20042416 -0.7589551
000250 3f 92 a1 be 23 15 5d 3d 53 9b 92 be 08 af dd be
       -0.3155689 0.053975236 -0.28634128 -0.432976
000260 54 75 ee be 19 24 bd be bd ee 0a 3f 6b 0a 19 3f
       -0.4657389 -0.36941603 0.54270536 0.5978152
000270 d7 a0 e4 be db 73 40 be fb 81 a2 be 4f 42 c4 bd
       -0.4465396 -0.18794195 -0.31739792 -0.0958296
000280 4c e2 11 bc b6 2b 34 be 15 08 d8 3e 42 39 54 3e
       -0.008904051 -0.175948 0.42193666 0.20724967
000290 45 00 e6 be bd 10 07 bf 7c f2 2a bf c9 a2 ee be
       -0.4492208 -0.52759916 -0.6677625 -0.4660857
0002a0 f7 3a 8d be 40 c6 cc 3e 97 95 e8 bd 14 7b a1 be
       -0.2758405 0.39995003 -0.11356657 -0.31539214
0002b0 cc 3c 6d 3e f0 e5 dc 3d 16 95 8b be ff 82 f0 bd
       0.23167723 0.107860446 -0.2726218 -0.117437355
0002c0 68 ed 7a 3e ed 80 1a 3f b9 1e 02 be 06 1a 18 3f
       0.24504626 0.60352975 -0.12707032 0.5941471
0002d0 f4 a7 e1 be d7 77 31 3d e0 c7 bc 3e 85 fe bc 3e
       -0.4407345 0.04332718 0.36871243 0.36912933
0002e0 4b 3a 03 3f 28 8b 79 be d2 5b 07 3f 4b e7 62 3d
       0.51260823 -0.2436949 0.5287448 0.05539636
0002f0 a9 6b 19 bf 4d d2 02 3f c3 b1 c0 bd 45 ed 86 be
       -0.599299 0.51102144 -0.09408905 -0.26352897
000300 67 cf f6 be 1b e0 62 bc 29 81 ba 3e 66 38 92 3d
       -0.4820511 -0.013847376 0.36426666 0.071396634
000310 f4 08 36 be 06 a3 0d be 7b 6f ea be f7 4b 0a bd
       -0.17776853 -0.1383172 -0.45788178 -0.033763852
000320 43 b5 31 3e c3 07 f5 be 7d 63 07 bf 9d 37 d8 3e
       0.17354302 -0.47857484 -0.5288618 0.4222993
000330 5f ca 2f 3e 49 5e a3 be 0c ac 05 bd 9c e0 18 bf
       0.17167042 -0.3190787 -0.03263478 -0.59717727
000340 07 6d c1 3e 21 df 5e be 82 05 0c 3f 31 68 01 bf
       0.37778494 -0.21764804 0.54695904 -0.5054961
000350 b2 cb c3 be 93 e8 e0 be 69 2f 03 bf b9 da c5 be
       -0.38241345 -0.4392744 -0.5124422 -0.38643435
000360 ff b3 e9 be bf ca b6 3d 84 4c 1c bd f3 f5 1a be
       -0.4564514 0.089253895 -0.03815891 -0.15132885
000370 0a 96 c9 3e 27 15 f4 bd 52 b1 ea 3e 90 1c 31 bf
       0.39372283 -0.11918097 0.4583841 -0.6918421
000380 b6 ac 8a 3e f7 36 16 bf 6e c0 10 bd b9 17 09 3f
       0.27084893 -0.5867762 -0.035339765 0.5355182
000390 28 a6 0f bf 58 c7 c9 be 29 d2 c9 bd f7 cc b3 be
       -0.5611291 -0.394099 -0.09854538 -0.35117313
0003a0 89 59 7a 3e 31 78 99 be 12 c9 15 bf e7 c8 d5 3d
       0.24448217 -0.2997451 -0.58509934 0.1043871
0003b0 48 09 e2 be d2 15 db be 86 5f bf 3e 3f 66 b8 3e
       -0.44147706 -0.42790085 0.37377566 0.36015508
0003c0 e6 91 99 3e 22 d4 1b be fb ba a1 3d dc dc 3d be
       0.29994124 -0.15217641 0.07896992 -0.18541282
0003d0 52 1e 35 bf 4f 61 48 3d 43 e9 c1 be e6 40 5e be
       -0.7074939 0.048920926 -0.37873277 -0.21704444
0003e0 2f 56 02 bd fc cd 04 3f 88 f0 56 bf 0a c6 3e 3e
       -0.031820472 0.5187681 -0.8396077 0.18630233
0003f0 80 68 83 3e 74 34 35 3e 20 a8 5e bc fc 7a a8 3d
       0.25665665 0.1769579 -0.013589889 0.082265824

weight f4 [256, 256]
000000 9c bf 1e 3d c4 15 bb bd 7e 91 1d bc 2f 8b a1 bb
       0.03875695 -0.09135011 -0.009617208 -0.004929922
000010 59 f3 e8 3d d4 b7 45 be db 19 83 3d e6 a4 f7 be
       0.1137454 -0.19308406 0.06401416 -0.48367995
000020 36 03 b9 3d de 6e d8 3c 5e 9e 04 3c 72 e2 69 bd
       0.090338156 0.026420053 0.008094398 -0.05710072
000030 78 0f 0b be 95 64 3e bd 03 0c 62 be b7 f4 77 3d
       -0.1358012 -0.04648264 -0.22074895 0.060536113
000040 7e 1b f5 3c dc b5 8c bd 33 d6 28 3e 91 cf 68 be
       0.029920336 -0.068706244 0.1648796 -0.2273543
000050 d7 5c 3e 3d 1f 1a 9c 3c c5 70 95 3d 13 a9 01 bc
       0.046475258 0.019055424 0.072969 -0.007913846
000060 04 a2 2a 3d ef 92 36 bd ad b9 35 bd e8 48 ac be
       0.041658416 -0.04457372 -0.044366527 -0.33649373
000070 25 fb ec bd 8b 13 1d bc 40 f6 b0 3d 12 fd 8d bd
       -0.115713395 -0.009587179 0.086407185 -0.06933035
000080 d7 5a 68 3e 16 78 df 3e af e3 3e be 8d e6 2d bd
       0.22690903 0.43646306 -0.18641542 -0.0424562
000090 ac 0b 85 3d cf 99 53 3d c9 cb 9a 3d ff 4f cb 3c
       0.06496367 0.051660355 0.075584 0.024818419
0000a0 1f a5 4a 3e bf c4 82 3d 86 c9 c9 bc 1b cb 18 3e
       0.19789551 0.063851826 -0.024632227 0.14921229
0000b0 51 bd 3d be df 88 67 be fd 6d cd be 03 06 9c 3c
       -0.1852925 -0.22610806 -0.40122977 0.019045835
0000c0 7d bd ef 3d 3b 81 01 3e 86 c6 17 bf 82 b4 55 3e
       0.11706064 0.12646954 -0.592873 0.2086964
0000d0 a8 52 e4 3d 64 af 3c 3d 74 9e 35 3b 32 01 7c 3d
       0.11148578 0.046065703 0.0027712854 0.061524577
0000e0 27 f3 8c be a8 1e c0 3d 7c 54 04 be d4 fb 71 be
       -0.2752926 0.09380847 -0.12922853 -0.23631221
0000f0 ed 38 10 be 0b 6e 3e 3e 2e 47 47 be be 59 db ba
       -0.14084215 0.18596666 -0.19460747 -0.0016735119
000100 fa 23 85 be df 59 ea bc 48 71 eb 3b 70 99 fc 3d
       -0.2600401 -0.028607307 0.007185135 0.123339534
000110 c5 74 fb bd e4 f0 2c be f7 70 84 be 81 33 0b bf
       -0.122781314 -0.16888767 -0.25867435 -0.54375464
000120 35 98 1f 3e c7 13 42 3d 30 fb e2 3d c0 c4 13 3e
       0.15585406 0.047382142 0.110830665 0.14430523
000130 68 5c 6a 3d 4b 0c 83 3e 66 90 3e 3b 17 17 8b 3e
       0.05721703 0.25595316 0.0029077767 0.27166054
000140 5d a1 51 bd d4 34 55 3c a1 f8 a7 3d 22 c7 73 be
       -0.05117928 0.0130130835 0.08201719 -0.23806432
000150 af 80 80 be 57 c2 94 bc aa 23 a7 be 6f 46 67 3d
       -0.25098178 -0.018159075 -0.32644397 0.056463655
000160 ce 5d 8b 3d f1 ae 83 3e 5c b7 a6 3c 42 4f 30 be
       0.06805001 0.25719407 0.020351104 -0.17217734
000170 3f ba 43 3e 48 09 4f be ad c3 2b bc eb ac 9e bd
       0.19114016 -0.20218384 -0.010483664 -0.07747825
000180 9c ec d8 3d 62 f1 62 be 75 38 8c be 00 6d ac 3d
       0.10592005 -0.22162393 -0.27386823 0.084192276
000190 3f e8 8d bc 85 29 84 3d 27 cd dc 3d 1b fa 5f be
       -0.017322658 0.06453232 0.10781317 -0.21872751
0001a0 a3 b4 c1 bc 82 5b 74 3d 4e c2 e9 3c 32 cc 7f bf
       -0.023645705 0.05965758 0.028535035 -0.9992095
0001b0 66 bc 8d 3d 43 3f 02 be da 29 2d 3c e0 de 6d be
       0.069207 -0.12719445 0.01056906 -0.23229551
0001c0 5f de 6a 3e 1a 20 4c be 26 d7 c5 bc 85 1a f0 bc
       0.2293639 -0.19934121 -0.024150442 -0.02930952
0001d0 52 cf 0b bf b3 e4 a9 3d d5 98 9e bc 20 17 2a bd
       -0.5461322 0.08295574 -0.019359985 -0.04152596
0001e0 11 40 1f 3d 0a 59 8a 3c ca 1f 46 3d 2e 5f f0 3d
       0.038879458 0.01688816 0.04837016 0.11736904
0001f0 54 1e c2 bd 57 07 e3 3d 5e eb 03 bd 06 68 12 3d
       -0.09478441 0.11085384 -0.032206886 0.035743736
000200 9f 74 46 3d 94 63 38 3d 82 b7 a4 3c eb 33 52 3d
       0.048451062 0.04501684 0.020107035 0.051319044
000210 01 29 82 bc 1e 98 9d 3d 68 4a b3 bd 01 16 b5 bc
       -0.015888693 0.0769503 -0.08754426 -0.022105219
000220 8a dd d3 bc 15 6c b4 bd 2d 6d 7c 3d 67 85 98 bd
       -0.025862474 -0.088096775 0.061627556 -0.074473195
000230 a1 cd 2c bd 5b fe 3e 3d 83 b5 e4 3c 30 55 58 3b
       -0.04218829 0.04662929 0.027918583 0.003300976
000240 a7 7c 9b 3e 13 46 25 be b8 d0 59 be 09 b3 b4 bc
       0.3036854 -0.16140012 -0.21271026 -0.022058027
000250 3b 7f d7 bd 5d bf 97 3d 12 c5 cd 3e ba a7 8f 3d
       -0.10522314 0.074095465 0.40189415 0.07014413
000260 32 57 7c be cb 4e da bd c8 28 22 3e 48 85 9e 3e
       -0.24642637 -0.1065956 0.1583587 0.3096106
000270 6b fc 0d bf 36 3b 24 bd 8b 41 be 3b e5 1b b9 3d
       -0.55463284 -0.04009553 0.005806153 0.090385236
000280 bc e5 d6 3d 41 77 92 bc c3 62 39 be 11 32 02 be
       0.10493037 -0.01787913 -0.18104081 -0.12714411
000290 14 63 42 3d e8 85 00 be b1 12 1c 3e 66 5c 1e be
       0.04745777 -0.12551081 0.15241505 -0.15464935
0002a0 e3 22 ad b9 e6 3e bc bd e7 50 a2 bd 1f 1c 9e 3c
       -0.00033023124 -0.091916844 -0.07925587 0.019300519
0002b0 3e 4b 8c 3e 7e d8 46 bd 32 8d dd 3d d6 4b 8c be
       0.27401155 -0.048546307 0.108179465 -0.27401608
0002c0 3a dd a0 3d ad 6c 15 3e eb bf 8e bd 07 25 30 3e
       0.078546956 0.14592238 -0.06970199 0.17201625
0002d0 01 b9 0f bd bd 20 2e be 4a 8d 1e 3e 9c 75 23 be
       -0.035088543 -0.17004676 0.15483585 -0.15962833
0002e0 6a 79 65 3d bf 5c 80 bc 3b 64 37 bc 08 12 03 3e
       0.056023993 -0.015669225 -0.01119333 0.12799847
0002f0 35 12 5c bf 59 30 02 3d d6 2c 60 bd 47 42 66 bd
       -0.8596528 0.03178439 -0.05473026 -0.05621555
000300 d8 36 c1 3b ce 44 6e 3d 9c 4d 31 3d d0 c0 c3 be
       0.0058964305 0.058171086 0.043286905 -0.38233042
000310 71 76 f4 3b b9 e4 ad 3c f6 88 b1 3d d7 85 08 be
       0.0074604084 0.021227228 0.08668701 -0.13332306
000320 e4 9e 91 bd 1e 99 11 bd e8 28 ea bd 81 0e 5b be
       -0.07110384 -0.035546415 -0.114335835 -0.21392252
000330 c8 cd 7a 3d 95 ec 85 3e 9d cf 57 be 35 48 94 3c
       0.061231405 0.2615706 -0.21075292 0.018100837
000340 3b 76 9e 3d 0a ad 28 be 34 1e 00 3e 4a 16 0e 3e
       0.077373944 -0.16472259 0.12511522 0.1387569
000350 4e 45 d7 be df f6 bf bd 32 99 52 be 67 dc 98 bd
       -0.42045063 -0.09373259 -0.20566252 -0.074639134
000360 e3 2f fc bd 4e 3d ba bd 42 68 b4 3d 12 d3 8b 3d
       -0.12313821 -0.09093724 0.08808948 0.06827368
000370 55 05 19 bd 0d 8c 10 bd 6f a5 5f 3d 7f 24 21 be
       -0.0373586 -0.035289813 0.05460113 -0.15736578
000380 cb 52 92 3e a1 bb aa 3e c7 4d 72 bc 87 68 4f bd
       0.2857879 0.33346274 -0.014789051 -0.050636794
000390 03 2a 03 bf 70 3d 00 3e c7 c9 26 3e 34 11 18 bd
       -0.5123598 0.12523437 0.1628791 -0.03712578
0003a0 90 1d 19 3e 0c af 05 be e8 3b d2 bd 17 79 69 3d
       0.14952683 -0.13055056 -0.102653325 0.057000246
0003b0 73 d4 03 3e 44 e9 1b 3e 19 2f 9a bc bd f8 1f 3d
       0.12874012 0.15225703 -0.018821286 0.039055575
0003c0 7a a0 f1 3d b5 98 f5 3d 65 d8 92 3d 7e 8a 80 3b
       0.117981866 0.11992017 0.0717018 0.0039227596
0003d0 92 00 d6 be b2 7f 7d 3b 8c 5e d3 3d 49 61 07 3e
       -0.4179731 0.0038680849 0.10320768 0.13220705
0003e0 a7 21 34 bc fe ec 14 3e d0 e3 ed 3e 21 9d 22 3e
       -0.0109943515 0.1454353 0.4646287 0.15880252
0003f0 6f dc 05 3e 0e de 05 3e 54 7e 14 3c e3 59 04 3e
       0.1307237 0.13072988 0.009063322 0.12924914

bias f4 [256]
000000 4f cd b6 3d c4 e4 51 3e cf 99 c0 3e d3 82 95 3d
       0.08925878 0.20497423 0.37617347 0.07300343
000010 ce 4f 86 bd 90 81 fe bd 30 46 d0 bc 78 b6 09 bf
       -0.0655819 -0.12427056 -0.025424093 -0.5379405
000020 4c 94 68 3e 0b c7 29 bd 18 b7 b7 bd c3 46 0a bd
       0.22712821 -0.041449588 -0.08970469 -0.03375889
000030 e7 a8 0c 3e ef 1e d1 bd 43 b9 11 3e ff e0 fd be
       0.13736306 -0.10210978 0.14230828 -0.4958572
000040 46 30 16 be 9c 7c b4 bd 6b 54 25 3c 71 ab 0c be
       -0.14666852 -0.0881283 0.010090928 -0.13737275
000050 18 4a b5 3b 77 d3 64 bd d6 10 85 be 5c 71 b8 be
       0.0055325143 -0.05586573 -0.25989407 -0.36023986
000060 f0 8f e8 bc 6d f8 8e be 52 e0 f4 bd 4f b5 c9 be
       -0.028388947 -0.2792391 -0.11956848 -0.3939614
000070 28 c9 20 3e 5b fd b6 3a e9 1c a9 3d 88 9d f1 3c
       0.15701735 0.0013961004 0.08257467 0.029494062
000080 4a b0 5c bd 87 d8 80 bd d0 ba 67 3d 37 4a b2 3c
       -0.05387906 -0.06291299 0.056574643 0.021763904
000090 25 44 69 be a0 9e 1c be e6 81 08 bf 4f b2 01 be
       -0.22779901 -0.15294886 -0.5332321 -0.12665676
0000a0 fc fa 19 be 45 36 d5 bd 1b 11 aa 3d d7 d1 1d 3e
       -0.15037149 -0.10410742 0.08304044 0.15412079
0000b0 27 11 e8 bc 1c 9b d1 be d3 46 75 bb a7 01 a2 be
       -0.028328491 -0.40938652 -0.0037426248 -0.31641886
0000c0 c7 cc a3 3e 91 b5 15 be ca 7d 87 be 83 ad 25 bc
       0.3199217 -0.14620043 -0.26463157 -0.010112169
0000d0 8d ec a7 3e 18 f1 db bd 91 a5 20 3d c3 26 eb bd
       0.3279766 -0.10739344 0.039220396 -0.114820026
0000e0 34 17 08 bd 97 7f 1d bd f6 86 4a 3e 8b 51 67 bd
       -0.033225253 -0.038451757 0.19778046 -0.05647425
0000f0 3a a2 d6 be 7a 1d 01 3f e0 9c 13 3e c9 2b 90 3d
       -0.41920644 0.504356 0.14415312 0.07039601
000100 0b 58 a1 bd 48 50 bb 3e e2 97 01 bd 85 01 be 3e
       -0.07878121 0.36584687 -0.031638987 0.37110534
000110 bc 8a 15 3e 9a 54 15 3e ef 82 72 bd 62 2b 51 bc
       0.14603704 0.14583054 -0.0592069 -0.012766691
000120 47 a2 37 bd 69 4e c7 bd 73 b3 26 3e b0 85 b4 3e
       -0.044832494 -0.097317524 0.16279392 0.35258245
000130 a2 fb 57 be a7 55 d8 3d 36 04 8a bc 42 f0 0f bb
       -0.21092084 0.10563212 -0.016847711 -0.0021963273
000140 8f ef 6d be 51 b4 c2 be ac fe 73 bd 70 e1 86 be
       -0.23235916 -0.38028196 -0.059569046 -0.2634387
000150 dd f0 d5 3e c9 ae 55 bc 4d 0d 00 be 17 61 d3 bb
       0.41785327 -0.01304216 -0.12505074 -0.006450783
000160 b0 45 bc 3d 67 2b d0 be 84 7a cf bb 58 2e 76 bd
       0.09192979 -0.40658113 -0.0063317437 -0.06010279
000170 a5 d9 c3 be c5 1a f2 be 4d bc c7 bd eb 15 ab bb
       -0.38251987 -0.4728605 -0.097527124 -0.0052211187
000180 28 4c bc bc 68 b6 e8 3b d7 76 90 be 46 25 7e bd
       -0.022985533 0.0071018226 -0.28215668 -0.062047265
000190 1d 32 9d bc d2 0a db bb fb 28 8c 3d 28 5d 4f 3e
       -0.019188935 -0.0066846395 0.06843754 0.2025038
0001a0 7e 01 07 3d 18 2d fc bc 78 a5 5b 3c 67 17 2c bd
       0.032960407 -0.030783221 0.01340615 -0.042014506
0001b0 f4 38 df be 60 05 b3 3e 52 19 9c bd 2b fc 05 bf
       -0.4359814 0.34965038 -0.07622017 -0.523379
0001c0 ca 0d 29 bf 19 28 a9 3d 21 38 72 3e 5d ac 80 bc
       -0.66036665 0.08259601 0.23654224 -0.01570719
0001d0 9b d4 81 bd 50 15 35 3e 30 64 e8 be 75 76 86 3d
       -0.063393794 0.17683911 -0.45388937 0.06565563
0001e0 b7 ca 9a bd ba ac 45 be dc f9 20 be a0 10 f2 3d
       -0.07558196 -0.19304171 -0.15720314 0.11819577
0001f0 bc 79 31 bd f8 35 2a be 3d 79 4b 3c b5 37 28 3e
       -0.043328986 -0.1662215 0.012419042 0.164275
000200 1f 5c 7d 3e 5a b2 8c bd fd f9 15 be 1e 0d c0 3e
       0.24742173 -0.06869955 -0.14646144 0.37510008
000210 cf e8 e7 be 1f eb 3b be e2 ea d0 bb 48 26 ec 3d
       -0.45294806 -0.1835141 -0.0063756565 0.11530739
000220 47 73 9e bd 67 a3 1d bd 0e f7 05 3d a6 1b b7 3e
       -0.07736831 -0.03848591 0.032706313 0.35763282
000230 58 6c f9 3c 2e d6 80 3d b9 44 a5 bc 85 a6 0a bd
       0.03044717 0.062908515 -0.020174371 -0.03385021
000240 c8 e5 90 be 52 2f b2 be 3c 62 40 bd ab ca 28 bc
       -0.2830031 -0.34801728 -0.046968684 -0.010302226
000250 87 5d 2b 3e c9 00 16 3d a4 d1 db bd 5c 52 f0 bd
       0.16734897 0.036621843 -0.10733345 -0.11734459
000260 60 ed e6 3a 9c 2d 2a 3e d0 b6 50 be 9b 68 c2 3e
       0.0017618351 0.16618961 -0.20382237 0.37970433
000270 a1 1c 0e 3e ea d8 8f bc f6 ad 98 bc dc 3f 36 bc
       0.13878109 -0.017559487 -0.018637639 -0.011123624
000280 3e 29 a3 bd a6 7c 1d 3e 7f 04 db bd 6a 81 0d be
       -0.07966851 0.15379581 -0.10694217 -0.13818899
000290 fc 6e 11 bd ba 7e 9e be 6c 7c e3 3d 4b ad 1e be
       -0.035506234 -0.3095606 0.11107716 -0.15495794
0002a0 42 62 44 bd 5f 4d 54 bc d1 8d 1a bc 05 c5 94 bc
       -0.04794527 -0.0129579 -0.009433226 -0.018160352
0002b0 67 3a e5 bc 24 01 01 3e 4f 69 b2 3d eb fc 89 be
       -0.02798195 0.12598091 0.08711492 -0.26950774
0002c0 0f 91 fe 3d b2 75 88 bd cb 7e 99 3d 53 4f 03 3d
       0.124300115 -0.066630736 0.07494887 0.03205807
0002d0 73 20 3b bc b0 48 ac bd d1 96 3b be ec e4 2f be
       -0.011421311 -0.084123015 -0.1831925 -0.1717717
0002e0 f4 d0 17 be d9 b3 e1 be 99 2d 78 be f8 ef 45 bc
       -0.14825803 -0.44082525 -0.24236144 -0.012081139
0002f0 55 3f 25 3c 82 40 62 be 78 e1 8c be 47 e9 4f 3d
       0.0100859 -0.2209492 -0.2751577 0.05075958
000300 c3 fc 0a bd 64 40 a3 be d3 b3 85 3e 29 45 f4 be
       -0.03393246 -0.31885064 0.26113757 -0.47709015
000310 01 58 af 3d f2 de 5c bd 1f 91 9c bd 40 f1 a8 bd
       0.08561707 -0.053923555 -0.07644867 -0.0824914
000320 9a 57 ac bd cb 20 90 3d 5d fd 4e bd 95 12 21 3c
       -0.08415146 0.07037505 -0.050534595 0.00983109
000330 48 d8 94 bd 26 80 c1 3e d8 dd cf 3c 08 c8 ef 3c
       -0.07267815 0.37793082 0.025374338 0.029270187
000340 de 2b ab 3b bf 83 b1 3c e5 5b 1d bd 15 d8 e1 3b
       0.0052237352 0.021669267 -0.038417716 0.006892214
000350 b5 9b 67 be 76 de 47 3b 1b 1a 0e bf 36 fc 50 be
       -0.22617991 0.0030497587 -0.55508584 -0.20408711
000360 7f ee 16 bd 0f 12 93 bd 44 a8 ab 3b 46 4b a5 bd
       -0.03684854 -0.07181179 0.0052385647 -0.08070998
000370 02 a4 be 3c 7a 57 da be f2 d9 79 bd 7d 45 83 3d
       0.023271564 -0.42644864 -0.060998864 0.06409738
000380 27 89 ae be 7f 9f e9 be 72 96 20 3d dc e8 7e be
       -0.34089014 -0.45629498 0.039205976 -0.24893516
000390 7d a9 93 bd 62 d9 4d bb a4 fa fc bc 78 39 bb bc
       -0.07210062 -0.0031410088 -0.030881234 -0.022854552
0003a0 e3 3c 6e be 23 9e 04 bd 27 56 f2 3e 8f 42 ac 3b
       -0.23265414 -0.032377373 0.47331354 0.005256958
0003b0 47 00 59 3d 4e b6 9a ba 61 8d 99 be 11 52 12 be
       0.05297878 -0.0011803599 -0.29990676 -0.14289118
0003c0 3f 7b 39 3d 9b d7 7e be 4f eb 3e be 0f eb 2c bd
       0.045283552 -0.24886934 -0.1864445 -0.042216357
0003d0 78 5d 3f 3e 83 d5 49 be 9c 97 73 ba 4f 8b 76 3d
       0.18687999 -0.19710355 -0.0009292306 0.06019145
0003e0 1f be bd bd f2 94 98 be a7 9e f1 3c 8f a0 ac bd
       -0.09264778 -0.29801136 0.029494597 -0.084290616
0003f0 ce 47 da bd 2b 48 f6 3b 75 aa 22 be 52 63 1c be
       -0.10658227 0.0075159273 -0.15885337 -0.15272263

weight f4 [12, 256]
000000 74 c7 dc ba 39 9c 8b 3b 8a 7b 07 bb 92 57 44 3a
       -0.001684411 0.0042605666 -0.0020673 0.00074898556
000010 a9 c8 13 3b 1e 2e 02 bd 81 5b fc ba 0c f1 a0 3a
       0.0022550023 -0.031782262 -0.0019253345 0.0012278869
000020 a6 4d 9e b9 45 12 05 3d 18 58 b4 b9 d2 f3 9e 3c
       -0.0003019396 0.032488126 -0.0003439791 0.019403372
000030 db 5f cd 3a c2 94 87 3a fb 54 73 bb 63 9c 52 3a
       0.0015668826 0.0010344016 -0.003712951 0.00080341677
000040 2c f8 b3 38 47 5e 27 3b 4c f1 af 39 ac 3d b7 3a
       8.581611e-05 0.0025538371 0.0003355838 0.0013980172
000050 11 b9 91 3c 78 87 ca 3c ab a5 1e 3b 95 56 ee 3a
       0.017788442 0.0247228 0.0024207633 0.0018183762
000060 85 63 85 bb cc f0 ae ba f6 93 9e 39 2d 5b 28 3b
       -0.0040707015 -0.001334691 0.00030246348 0.002568911
000070 b0 7a 54 3b 83 2d 1e bb 6f b8 86 3b 76 6d 3e 3a
       0.003242176 -0.0024136014 0.0041113417 0.0007264236
000080 4e 3e 86 bc a9 12 05 bb f9 22 6c bb 40 9f 0d ba
       -0.016387131 -0.0020305312 -0.0036031588 -0.0005402453
000090 eb 75 86 3a 51 d8 50 3a 92 23 8e 3a f4 92 75 3c
       0.0010258531 0.0007966804 0.0010844341 0.01498865
0000a0 b3 71 0b bc b0 a8 16 bb 82 2d 47 3b 05 f4 e5 b9
       -0.008510995 -0.002298873 0.0030392115 -0.00043860092
0000b0 f1 66 84 3a 5d 67 9c ba 6e 6a 3d ba 30 56 b1 b9
       0.001010148 -0.001193266 -0.0007225637 -0.00033824285
0000c0 1d b0 21 bb b0 2c 42 3a 78 e9 6a 3b 54 02 11 3c
       -0.0024671622 0.00074071717 0.0035844725 0.008850653
0000d0 a2 ae eb 3a f8 eb c8 b9 4c e7 2b 3c 60 b7 0b bc
       0.0017981122 -0.00038322783 0.010492157 -0.008527607
0000e0 ba 75 de bc e6 ba 0c 3a b6 29 f0 ba 6e 92 d2 bc
       -0.027155746 0.0005368426 -0.0018322978 -0.025704589
0000f0 00 f2 12 3a 29 d2 06 3b 94 f9 1e bb 55 95 c4 bb
       0.0005605519 0.0020572043 -0.0024257647 -0.005999247
000100 7b dd 44 3b c0 b2 21 3b d4 8c 82 3b 6d 0a 04 3b
       0.003003924 0.0024673194 0.003984073 0.0020147816
000110 af 12 74 3b 29 c7 01 3b 77 66 b9 3a 97 4a df 3a
       0.0037242582 0.0019802547 0.0014144917 0.0017035779
000120 20 36 51 3a 76 53 ce 3b 15 9c 70 3b 66 3f 6f 3a
       0.00079807825 0.0062965704 0.0036714126 0.00091265736
000130 0a af ca 38 bc 57 44 bb af e9 06 3c 2d 03 02 3c
       9.664714e-05 -0.002995952 0.008234425 0.0079353275
000140 31 a7 30 b9 4b e0 af 3a 20 36 a1 b9 29 bc de 39
       -0.00016846952 0.0013418285 -0.0003074864 0.0004248333
000150 d4 22 e6 3a f4 4d b8 bb 9f 63 1f bb b6 f5 c5 b9
       0.0017557987 -0.005624527 -0.0024320853 -0.00037757837
000160 84 45 04 bb 3e 85 05 3b 58 2e 4b ba 67 18 be ba
       -0.0020183036 0.0020373608 -0.0007750741 -0.0014503122
000170 26 a3 43 ba e9 31 a1 bb b2 2b 8f b7 e1 22 d2 3a
       -0.00074629707 -0.00491928 -1.7067276e-05 0.0016032123
000180 c6 f5 14 3a 90 a4 d8 3c 9e a6 a5 39 c6 fd 46 3b
       0.0005682375 0.026445657 0.00031595392 0.0030363663
000190 6a f3 e1 ba 80 d0 57 bb 09 37 7a 3a 8d 2b 81 bb
       -0.0017238681 -0.0032930672 0.0009544944 -0.0039419592
0001a0 ef 41 d2 3c 9b 63 86 bd b3 ea 4f 3b c3 b9 8f 3a
       0.025666205 -0.06561967 0.0031725585 0.0010965395
0001b0 f9 40 0f ba c7 74 2b bb 5b 28 96 bc cf 0a 1f 3b
       -0.0005464699 -0.0026162134 -0.01832979 0.0024267917
0001c0 13 c9 5f 39 71 a9 bb b9 6d ab 4c ba 2a c0 bc 3a
       0.00021341843 -0.00035793663 -0.0007807527 0.0014400531
0001d0 b5 6c 56 bc 17 21 e4 39 bb 85 6c 3b 10 d3 42 3a
       -0.013087441 0.00043512203 0.0036090452 0.00074319635
0001e0 05 ec 6d bc 28 50 7d 3a 53 2b ae 3b cc 95 57 ba
       -0.0145216035 0.00096631283 0.0053152232 -0.00082239206
0001f0 96 01 24 3b af b2 08 bb 46 4d 33 3b aa 24 98 3a
       0.002502536 -0.0020858457 0.002735929 0.0011607606
000200 99 51 7a 3b 58 81 3c ba ce e9 dd 3a 61 99 03 bb
       0.0038195609 -0.00071909046 0.0016930641 -0.0020080435
000210 3a 44 50 bb a2 f8 8b ba 1f be 67 bd f2 8f cb 39
       -0.0031778947 -0.0010678957 -0.056577798 0.00038826425
000220 38 36 0c bb 6c eb 9a bb dc c2 4a bb ed 65 b9 3a
       -0.0021394622 -0.0047277715 -0.00309389 0.0014144756
000230 bd 53 d7 3a 57 33 66 3a 91 ad 01 bb 80 05 97 bb
       0.0016428154 0.0008781454 -0.0019787292 -0.00460881
000240 17 ac b8 3b d4 1c 40 3a 15 14 b2 3c 4b 4b c8 3b
       0.005635749 0.00073285145 0.021738091 0.0061124912
000250 65 f2 4c bb a6 21 92 ba ef aa 38 bb 64 05 15 3b
       -0.0031272408 -0.0011148944 -0.0028178056 0.0022738809
000260 df b0 9e bb a0 54 2b bb 7e 0e ee ba 47 29 4f 3a
       -0.004842862 -0.002614297 -0.0018162278 0.0007902574
000270 b3 71 4b b9 17 18 ad ba c5 88 34 3b 55 48 91 b9
       -0.00019401945 -0.0013206032 0.0027547341 -0.00027710447
000280 30 e7 fa 3c 87 9f c7 bb 09 4d 3a ba bc 95 17 b9
       0.030627817 -0.006092015 -0.0007106816 -0.00014456263
000290 d5 2b 64 3a 22 31 36 3b d9 e8 de 3a e1 17 94 3b
       0.0008704041 0.0027800282 0.001700665 0.004519448
0002a0 aa 08 91 3b af 12 36 bc fe 4a c9 ba 66 ba 48 bb
       0.0044260817 -0.011112853 -0.0015357432 -0.003062868
0002b0 f0 42 b0 bb 8c a7 e0 b9 b0 d7 00 36 1b 0b 4c 3b
       -0.0053790733 -0.00042849442 1.9199033e-06 0.003113455
0002c0 f9 a9 b3 ba 90 9f 7e bb 66 e3 67 b9 8a cf 35 bb
       -0.0013707272 -0.003885243 -0.00022114589 -0.002774211
0002d0 b4 06 8d 3a 68 d6 1b 3b f9 52 47 39 82 de dc ba
       0.0010759444 0.002377892 0.00019009029 -0.001685098
0002e0 b0 f5 95 ba 86 4a a8 3a 4a ba 6d 3a 55 6f 53 3a
       -0.0011441018 0.0012839593 0.0009068592 0.0008065601
0002f0 f1 24 d4 3a 6e db dc ba d0 84 d0 ba 53 47 2c bb
       0.0016185326 -0.0016850063 -0.0015908722 -0.002628763
000300 8a 9f 18 bc f5 c8 cd ba 08 5d d0 b8 12 bd 77 bb
       -0.009315381 -0.0015700149 -9.935541e-05 -0.0037801904
000310 39 1b 1f 3c e2 ba ed bb 67 ae c4 3a 2a 9b a0 3b
       0.00971108 -0.007254944 0.0015005589 0.0049013095
000320 30 0d 9f 3b fc bf 20 bb aa f6 6d 3b c3 af 4a bb
       0.004853867 -0.0024528494 0.0036310353 -0.0030927516
000330 bd c1 52 3a 3f de 5c ba e3 95 a6 3a 2a 77 75 bb
       0.00080397335 -0.0008425451 0.0012709465 -0.003745506
000340 db fa e8 39 86 c5 ed ba 1e 14 2d 3a 8d 99 ef 3a
       0.0004443739 -0.0018140532 0.0006602424 0.0018280015
000350 eb 9b c8 39 69 a6 08 39 88 10 c9 b8 ec 3e 15 bb
       0.0003826314 0.00013031963 -9.587506e-05 -0.00227731
000360 27 7e 9a 3a 04 4f 6f bd a0 57 5b 3c a6 d3 9c bb
       0.0011786864 -0.058424965 0.013387591 -0.0047859726
000370 36 3f 09 3b 4e d6 eb 3a 00 8e 14 3b 03 cb 85 39
       0.0020942218 0.0017992945 0.0022667646 0.00025518992
000380 be 0a f1 3b ac 4d 05 ba a5 42 bd 39 51 e8 af ba
       0.007356017 -0.00050851214 0.00036098543 -0.0013420676
000390 e5 57 8e bb d7 48 d0 b9 cf 4b fa b8 70 6c 88 bb
       -0.004343974 -0.00039727121 -0.000119350494 -0.0041633174
0003a0 2b 04 d9 3a 66 25 2a 39 46 6c 87 ba e4 c2 70 bb
       0.0016557028 0.00016226395 -0.0010331951 -0.0036737258
0003b0 48 4b 0c 3c 10 41 fa bc d3 08 8a b8 07 b4 96 3b
       0.00856287 -0.030548602 -6.5819964e-05 0.0045990977
0003c0 89 54 2d ba 60 95 a0 3a f0 46 f9 39 82 d4 c4 3b
       -0.0006612023 0.0012251548 0.00047545834 0.006006778
0003d0 20 1d 5a 39 4f ae 8c 3b 38 91 2f bb 57 d2 45 bb
       0.0002080095 0.00429324 -0.0026789438 -0.0030185187
0003e0 8d 73 91 ba b8 8d 1b b9 0c 65 9f 39 63 6c cf 39
       -0.0011097059 -0.00014834746 0.0003040213 0.0003956287
0003f0 e3 ef 1c b9 fd 1d 23 3b ac 38 03 ba 63 8c 0c 3b
       -0.00014966684 0.00248897 -0.0005005698 0.0021445982

bias f4 [12]
000000 a4 b1 97 3c 73 fd ad bc c1 19 40 3c 6e 2d e6 ba
       0.018517323 -0.021239018 0.01172489 -0.0017561147
000010 60 37 04 3c 16 9e ec b9 15 bb 9d 3d 4a 5d f0 3d
       0.008069843 -0.0004513121 0.07701699 0.117365435
000020 b2 09 30 3e cb 94 c7 3c c2 fa 13 3d de ed f6 3d
       0.17191198 0.024362942 0.036127813 0.12057088
