Experiments/Hopper/TrainedModels/vanilla_nn_dynamics_hopper.pth (torch, 295942 bytes, 6 tensors)

weight f4 [256, 15]
000000 65 76 b0 bb 97 a5 6a be 7c 0b 13 3f 97 e5 f1 be
       -0.0053852075 -0.2291473 0.574394 -0.47245476
000010 25 93 70 be 07 08 92 3e 3d f0 0b bc 10 b2 25 3d
       -0.23493631 0.2852175 -0.008541164 0.040453017
000020 ef ff 74 3d 50 b3 98 3c 7b f1 23 3d 7b 72 91 bc
       0.05981439 0.01864019 0.040025216 -0.017754784
000030 2f c2 40 3e 7f 50 37 3d ea c7 33 ba f6 0f d5 bb
       0.18824075 0.0447545 -0.00068580976 -0.006502147
000040 27 b3 c2 3d 96 fc 19 3e 08 f7 de 3c 0c b2 90 3e
       0.09506827 0.1503776 0.027217403 0.2826084
000050 c7 07 b4 3f ab 26 ab bd ba 10 3c 3e a5 82 32 bd
       1.4064873 -0.08356985 0.18365756 -0.043581624
000060 dc b4 09 3d 5a 16 dc bc 32 2c 78 3c 3a f0 e4 3c
       0.033619747 -0.026866127 0.015147256 0.02794658
000070 64 77 ac bc c1 ac 92 3c c3 bd 75 be 63 b3 06 3d
       -0.021053024 0.017904641 -0.2399817 0.03288592
000080 0e be 95 be 83 ea 35 bf 50 e5 8d 3f b3 c9 ca be
       -0.29246563 -0.7106096 1.1085606 -0.3960701
000090 a3 31 85 bd 76 80 81 bc cd 50 49 3d 67 96 df bd
       -0.06503608 -0.015808325 0.049149323 -0.10917359
0000a0 2e 11 b9 bc 59 66 56 3d 38 c7 5d 3c f0 eb 2d 39
       -0.0225912 0.0523437 0.013536267 0.00016586459
0000b0 4c 24 e1 3d 7a 13 52 bd da 2e 22 3e 6b 36 08 bf
       0.10993251 -0.051288106 0.15838185 -0.53208035
0000c0 6e 09 2f be 8a 4b f3 be 8c 10 bf bd af 1d 86 3d
       -0.17093441 -0.4751857 -0.09329328 0.065486304
0000d0 fb c2 23 bd df 5b df 3c 16 d7 9d bd 5c 59 11 bd
       -0.03998087 0.027265487 -0.0770704 -0.03548561
0000e0 ea 52 41 bd fc 0a 00 bd 99 0e bb 3c 48 d9 4e bd
       -0.047198214 -0.031260476 0.02283411 -0.050500184
0000f0 56 4e f0 3c 4b 3e 34 3b 19 3c da 3e c7 38 a5 bd
       0.029334228 0.002750295 0.42623976 -0.0806747
000100 cb a0 16 3f 4c 22 0f bf 72 2d 5a be e7 79 9b bd
       0.588391 -0.5591171 -0.21306399 -0.075916104
000110 7e d5 59 be 9f 2c 2a 3d 60 95 f7 3d 57 2a 89 3d
       -0.21272847 0.04154646 0.12089038 0.06697529
000120 65 5d 16 be 0c eb a0 3d c6 0c c1 3d e2 6b 1e bc
       -0.14684065 0.07857332 0.094262645 -0.009669276
000130 52 cc 9b bd f0 d8 a9 be a5 f0 ea 3e 18 6d d1 3d
       -0.076073304 -0.33173323 0.45886722 0.10225886
000140 62 b5 eb be 2c d7 39 3e c8 59 3c be b6 ef 0d be
       -0.46036822 0.18148488 -0.18393624 -0.13860974
000150 ce bd 0c 3e a4 87 65 3d e0 69 94 bc 12 44 96 3d
       0.1374428 0.05603756 -0.018116891 0.07337202
000160 b3 85 49 bc 48 a8 b5 3d a8 c5 fa bc f4 e7 a7 3e
       -0.012299943 0.08869988 -0.030611828 0.32794154
000170 09 95 01 3f 53 d2 b1 3f 85 1b 26 3f 78 13 ae be
       0.50618035 1.3892311 0.6488574 -0.33999228
000180 f1 f3 3b 3e d7 1d 65 bd 94 fd 53 3d 8c 14 d4 bc
       0.18354775 -0.05593666 0.051755503 -0.025888704
000190 58 a7 6b bd d6 34 69 bd c5 26 aa 3d 3b 15 6c bc
       -0.05753264 -0.056935154 0.08308176 -0.014409359
0001a0 43 2e 72 3e 63 a5 68 38 e0 e5 a1 be 6d 0a a4 be
       0.2365046 5.546714e-05 -0.31620693 -0.32039204
0001b0 bc a0 a9 be dd 86 7f 3e 04 99 35 3e 85 6f 4a 3e
       -0.33130443 0.2495379 0.17734152 0.19769104
0001c0 8f 91 4b bd b0 35 a5 3c e8 99 37 3e f9 d7 a7 3c
       -0.049699362 0.020167202 0.17929804 0.020488726
0001d0 0c 5d b3 3b df 23 80 3e fe 81 3a bc ef 18 2e bd
       0.0054737385 0.25027367 -0.011383532 -0.042504247
0001e0 78 c1 1b be 43 cc 6a be b9 a6 03 bf fc ae 2a be
       -0.15210521 -0.22929482 -0.51426274 -0.16668314
0001f0 e5 dd ff bd e6 ea 8b 3e 1e 72 48 be 91 62 42 3e
       -0.12493495 0.2732765 -0.19574782 0.18982913
000200 a8 82 0e 3c e1 98 c0 3d 4c f0 f6 3d fc e2 cd bd
       0.008698143 0.09404159 0.12057552 -0.100530595
000210 1e 14 58 3e cb 24 84 3d ac 8f 81 be ca 87 02 be
       0.21101424 0.0645233 -0.25304925 -0.12747112
000220 c9 a2 23 be b5 7a 8b 3e a7 1d 0f bf eb 8b 53 bd
       -0.15980066 0.27242056 -0.5590462 -0.051647108
000230 97 87 1c bf 62 56 10 3e 2c 11 98 3d 39 20 9a be
       -0.61144394 0.14095452 0.0742515 -0.3010271
000240 63 4a 65 3e 30 d4 ec 3d b8 5a fe 3d f4 76 c2 3d
       0.22391658 0.11563909 0.12419647 0.09495345
000250 64 14 8e bd 99 08 50 3d dd b4 db 3a 49 b5 29 bf
       -0.06937483 0.05078945 0.0016762275 -0.66292244
000260 a6 cf 0b bf a3 2b 80 3e b4 f2 1e 3f 28 3d 5f 3f
       -0.5461372 0.25033292 0.62089086 0.8720269
000270 3e a5 7a 3e 42 85 af bb 07 14 5b be b8 9c 32 3e
       0.24477097 -0.0053564617 -0.21394359 0.17442596
000280 47 a8 06 bd 76 63 81 bc ee ae e6 bd be 63 a5 bd
       -0.032875326 -0.015794497 -0.11263834 -0.08075665
000290 8d a6 8d 3d a0 8a 4d 3a 45 c1 60 be 9e 97 bf 3d
       0.06916533 0.0007840786 -0.21948726 0.093550906
0002a0 cb 22 da 3e 88 b6 1b 3e 6b 49 9e 3d 20 e2 11 3e
       0.4260467 0.15206349 0.07728847 0.14246416
0002b0 b8 18 05 be e7 3c 41 3e dc 3c 1a be 5e d5 8e bd
       -0.1299771 0.18870889 -0.15062279 -0.0697429
0002c0 23 42 4d 3d 3f 4f 9f bc f4 e0 63 bc b3 09 88 bd
       0.0501119 -0.019446967 -0.0139086135 -0.06642475
0002d0 d0 08 95 bc 14 a0 24 3d 09 e5 eb 3d 8c 1f f7 3d
       -0.018192679 0.040191725 0.11518294 0.12066564
0002e0 6b 62 15 be d1 dd 05 bf 42 65 3a be dc 8d ed bd
       -0.14588325 -0.5229159 -0.1820269 -0.11599323
0002f0 a3 99 a1 bd 79 1c 32 bc e3 7b f3 3c 46 d9 91 3e
       -0.07890632 -0.010871046 0.02972216 0.2848608
000300 6d 7e 07 be e8 a6 b9 bc cb 10 e1 3e 28 1c d1 3b
       -0.13231821 -0.022662595 0.43958125 0.0063815303
000310 c6 84 aa bd 50 c8 2b 3e be 79 a9 be ee 1c 52 3c
       -0.08326106 0.16775632 -0.33100694 0.01282428
000320 e8 8f 25 bf d7 34 18 3e e5 3f dc bd cd 46 ce bc
       -0.6467271 0.14863907 -0.107543744 -0.025180245
000330 73 90 19 3e 6c a0 17 3e df f9 f9 bd a9 7e 26 3e
       0.14996509 0.1480729 -0.12205862 0.16259255
000340 61 3b d0 3d 12 b9 99 be 9f 04 32 bb 6f 02 4b be
       0.10167576 -0.3002401 -0.00271634 -0.19825147
000350 47 0a 55 3f ce 7b 59 3d bb 91 53 3e 41 d5 f3 3e
       0.83218807 0.053096585 0.2066106 0.47623637
000360 46 70 85 be 51 7d 36 3c ab a0 53 be 59 77 d9 bd
       -0.2606222 0.011138276 -0.20666759 -0.10618467
000370 17 cf a3 bd 62 86 9f bd d0 74 1b bf ae c4 f0 bd
       -0.07998484 -0.07789303 -0.60725117 -0.11756264
000380 72 3b 6d 3c 1c 2b 65 3b 74 16 48 be 5d 66 84 be
       0.014479505 0.0034968322 -0.19539815 -0.25859347
000390 57 50 55 be 89 d7 5e 3e 21 cf f1 bd e3 30 09 3e
       -0.20831428 0.21761908 -0.11807085 0.13397555
0003a0 fe 83 3b be db 1b 0d be d4 c9 05 3e b2 08 cc 3c
       -0.1831207 -0.13780157 0.13065273 0.02490649
0003b0 5e a0 eb bc 81 0c a5 bc 71 62 e2 bb 01 c3 c4 3d
       -0.028762992 -0.020147564 -0.006908708 0.096075065
0003c0 66 30 15 3c be ee 02 3f 56 12 0d 3f 22 d0 ee be
       0.009105777 0.5114554 0.55106103 -0.46643168
0003d0 1b bc 26 3f 5f a0 66 be e4 79 a4 bd f2 11 9a 3e
       0.65130776 -0.22522114 -0.08031061 0.30091816
0003e0 69 d8 14 3e a4 2b d0 ba fa 1f 2e 3b 60 87 a0 bc
       0.14535679 -0.0015882147 0.0026569352 -0.019595802
0003f0 8d 65 58 3e 3d fb 6e 3d 96 af be bd 3e 22 6a bc
       0.21132489 0.05834507 -0.09310834 -0.014290391

bias f4 [256]
000000 4d 13 70 3d de ba d1 be eb 32 64 3e 52 5d 2b bf
       0.058612157 -0.4096288 0.22285049 -0.6693927
000010 f9 67 84 3e d8 52 83 bd 62 e8 45 3d 0a 4a 0d 3e
       0.25860575 -0.064122856 0.04831732 0.13797775
000020 fa 22 9f 3d 77 67 ef 3e 38 47 52 be d6 28 b5 3e
       0.07770343 0.46758625 -0.2053498 0.35382718
000030 64 bc 14 3e ac d5 db be d7 97 87 be 6b bb 54 be
       0.1452499 -0.42936456 -0.26483032 -0.2077462
000040 30 67 8f 3e 50 d1 37 3e 26 da cd bc e4 a0 b0 3e
       0.28008413 0.1795094 -0.025128435 0.3449775
000050 08 2f 0d 3f 6b b4 8b be 60 4d 02 be 9c e4 24 bf
       0.5514989 -0.27286085 -0.12724829 -0.6441133
000060 05 f0 73 bd 9c 53 51 bc 79 24 51 be f2 11 61 be
       -0.059555072 -0.012776282 -0.2042407 -0.21979502
000070 dd e2 8d 3d e3 24 37 3e 78 c0 03 3e 8b 7a 1a 3d
       0.06928036 0.17885165 0.1286639 0.037714522
000080 60 46 6c 3d de a7 3f 3f c7 cc 0b 3e 7a c6 87 3e
       0.057684302 0.7486552 0.13652335 0.26518613
000090 97 7f 05 3e 1b f6 5e 3e 9f b9 9e 3e 5a 99 03 bf
       0.13036953 0.2177357 0.31000993 -0.5140587
0000a0 ef b5 b2 be 5f cb 0c bf 16 44 8c 3d 7a 77 da be
       -0.3490443 -0.5499782 0.06848924 -0.42669278
0000b0 ed 64 18 bd 9d 28 e7 bd 10 94 dd 3e 12 16 76 3e
       -0.037205625 -0.11287043 0.43277025 0.24031857
0000c0 00 43 56 bf c1 65 18 be 3e 90 2d 3d 27 ec 02 3d
       -0.83695984 -0.14882566 0.04237389 0.031963494
0000d0 1d 50 bb bd 37 c7 c8 be ff eb 0d bf 55 01 1e bf
       -0.0914614 -0.3921449 -0.55438226 -0.6172078
0000e0 56 d0 38 3e 28 bd b0 3e b7 52 5e bc f6 f3 9f be
       0.18048224 0.34519315 -0.013569525 -0.31240815
0000f0 a1 27 92 be 20 ce 7c 3e 7b ab f2 3d b7 2d a0 3e
       -0.2854586 0.24688005 0.118491136 0.31284878
000100 bd ed dc bd cf 17 be 3d 23 c8 06 3f f6 3c 06 be
       -0.107875325 0.09281885 0.52649134 -0.13109192
000110 b7 74 b7 3d 13 30 6c 3d 91 90 dd bd 7a 0a 4b 3e
       0.089578085 0.057663035 -0.108185895 0.19828215
000120 bd dc b3 3e 77 b1 a0 3d 02 82 12 be 50 a9 88 3c
       0.35129347 0.07846349 -0.14307407 0.016682297
000130 79 00 bd be 49 dc a4 bb da fc 1e bf 52 ff 3f 3d
       -0.36914423 -0.005031143 -0.6210457 0.04687435
000140 2a 19 18 be 30 a1 84 be 4b f9 38 3d 5f a7 fe bd
       -0.1485335 -0.25904226 0.04515962 -0.12434267
000150 6a 52 66 be 98 ff 40 ba 08 f7 0d be b1 45 93 3e
       -0.22492376 -0.0007362305 -0.13863766 0.28764108
000160 0f 65 11 be a6 6e 81 3e e0 09 89 bd 0b 5a e2 3e
       -0.14198707 0.2527973 -0.06691337 0.44209322
000170 e5 4e d4 3e 61 92 c0 3d b1 26 80 3d c8 5e a8 be
       0.41466442 0.094029196 0.0625738 -0.32884812
000180 40 3e 9c 3e 60 6a 05 bd 67 bc a0 bd 48 04 83 3e
       0.30516243 -0.03257215 -0.07848435 0.25589204
000190 69 20 aa bd 9f bb c9 3e fc 83 3c 3f 0c 82 ef 3c
       -0.08306963 0.39400956 0.7363889 0.029236816
0001a0 0e f3 1c be 96 cf 3d be 5a 1b 43 be a2 0f c5 3e
       -0.15327093 -0.18536219 -0.19053403 0.3848849
0001b0 f5 27 9f 3e 02 5e cf bd 8c ca 71 be 00 4c 51 3e
       0.31085172 -0.101253524 -0.23612422 0.20439148
0001c0 d2 91 01 3e f3 ce 1c bf 5d d6 de be a5 e5 a6 be
       0.12653282 -0.6125328 -0.4352292 -0.3259708
0001d0 da 6a 49 bf 7c 37 95 3d 16 6a 60 be 6f 3c b5 be
       -0.7867867 0.072859734 -0.21915469 -0.3539767
0001e0 cd 0d 95 3d 50 7a 3d be 1b f3 91 3e 37 d7 16 3e
       0.07278023 -0.1850369 0.28505787 0.14730535
0001f0 35 59 95 3e 1d b8 bc bd 38 e2 53 be 04 98 87 be
       0.29169622 -0.09214804 -0.20691764 -0.26483166
000200 28 8e 26 bd a1 88 8f 3d 57 45 20 bf 44 6b 39 bf
       -0.040662915 0.07008482 -0.62605804 -0.724293
000210 24 27 08 bf 81 37 8c bd ba 05 91 3c 48 a3 c1 be
       -0.53184724 -0.06846524 0.017702926 -0.37819886
000220 1f 28 3d 3e 4c f6 c4 3d ac 59 f2 be 5d 98 6a bd
       0.18472336 0.0961729 -0.4733404 -0.05727421
000230 9e 35 dc 3e 20 0b 57 3e 05 79 d5 3d 5f 69 cd bc
       0.43009657 0.21000338 0.10423473 -0.025074659
000240 7f bd ea be 98 57 8d 3e ff b5 3b 3f a3 91 97 bd
       -0.458477 0.2760589 0.7332458 -0.07400825
000250 8d 43 4c bd 7c 4c 44 bf d7 7a 14 be 01 2e d0 3c
       -0.04986911 -0.76679206 -0.14499985 0.025412561
000260 49 63 1f 3e d9 b6 0d bf 7f b3 73 be 14 a1 fa bd
       0.15565218 -0.5535713 -0.23798941 -0.122377545
000270 c2 26 4e be 8e 2a cd 3e 28 14 e7 be 2b 47 9e 3e
       -0.20131972 0.4007153 -0.45132565 0.30913672
000280 7f 8e c3 be 08 99 67 bc 00 76 4e 3e 24 5f 26 bf
       -0.38194653 -0.014135607 0.20162201 -0.64988923
000290 1f 11 f5 bd 77 56 8d bd bb d5 9e be 9e 5e 49 3e
       -0.11966156 -0.069012575 -0.31022438 0.19665
0002a0 e1 56 79 be ca e3 41 bf 57 b1 9d 3d ee fd 97 be
       -0.24349548 -0.75738204 0.076998405 -0.2968592
0002b0 75 fe 0c 3e 68 62 08 3f 52 6e 2b be 66 e2 17 be
       0.13768943 0.53275156 -0.16741303 -0.14832458
0002c0 ef 25 bf be 5f 7c 35 be cf fc 9d 3e 64 64 b6 bd
       -0.3733363 -0.17723225 0.3085694 -0.08905867
0002d0 ec 9e 66 3e 62 f8 cd bd cb c9 5e be 5c b0 7c bd
       0.22521561 -0.10057141 -0.21756665 -0.061691627
0002e0 03 76 0b bf 25 4d b4 3e 5b 2f cd be e4 dc 25 be
       -0.54476947 0.35215107 -0.40075192 -0.16197544
0002f0 aa d1 d7 3d ab 10 d3 3e d4 32 80 3d 41 13 09 bf
       0.10538037 0.41223654 0.06259695 -0.53545004
000300 e9 ea 57 be de eb d2 3e ed 3f 67 bf ef 4e b8 be
       -0.21085705 0.41195577 -0.9033192 -0.35997722
000310 66 4f 8d be 34 71 3f 3d ca 7e 01 3f ed 02 90 3e
       -0.2759964 0.04673882 0.5058409 0.28127232
000320 56 f7 10 be 9b ed 07 3f 19 1e cb be 8c 20 b0 bd
       -0.14156851 0.5309693 -0.396714 -0.08599958
000330 8f 9b 4e 3c 2f c2 bf 3e da d1 8c bb 14 76 76 be
       0.01261033 0.37452838 -0.004297477 -0.2406848
000340 31 9e d9 3d af f5 65 3e 7f 52 23 3e 82 3b 4e bf
       0.10625876 0.22457002 0.15949439 -0.8055955
000350 e6 3d a6 3d c9 07 98 3e 95 35 cc be 05 fb 68 bf
       0.08117275 0.2969344 -0.3988463 -0.91008025
000360 47 70 d3 3e 59 59 c3 be 48 35 cc be 58 80 6e 3d
       0.41296598 -0.38154104 -0.398844 0.058227867
000370 1d f5 a3 be 12 12 02 bf 6a c9 79 be 23 01 27 3e
       -0.32022944 -0.50808823 -0.2439324 0.16309027
000380 9c c8 66 be f8 3e d7 be 8f d1 1e bf 94 f0 25 bf
       -0.22537464 -0.4204023 -0.6203851 -0.6482022
000390 4c df cf be e8 e4 1c 3d 4d bd d3 bd d8 e0 50 3c
       -0.4060005 0.03830424 -0.10338841 0.012748919
0003a0 1a 0b 91 3e ef 2f 10 be b3 ba f5 be 2b d8 e0 bd
       0.28328782 -0.14080785 -0.47994003 -0.10978731
0003b0 f6 de ab 3d e4 17 9b bd b8 f0 c0 be fb 97 84 3d
       0.08392136 -0.07572916 -0.37683654 0.064743005
0003c0 3f e8 df 3d 4f b2 9c 3e 16 b5 90 3e be 25 0f bd
       0.10932969 0.3060479 0.28263158 -0.034948103
0003d0 5f da 62 bc f0 c0 1a 3d 33 99 0e bf e0 62 07 be
       -0.013846009 0.037781656 -0.55702513 -0.13221312
0003e0 e5 71 a6 be c4 f0 8f 3e a4 0c 39 3e 5b 84 f0 be
       -0.3250877 0.28113377 0.18071228 -0.4697598
0003f0 65 77 de be 90 fc c6 bd a1 fb ac 3e a2 71 6d 3c
       -0.43450466 -0.09716141 0.33785728 0.014492424

weight f4 [256, 256]
000000 b9 ca 90 bd b5 99 00 3d 81 f6 3d be 38 aa c3 bd
       -0.07069916 0.031396586 -0.18551065 -0.09553951
000010 21 13 9c bd b0 d6 f7 3c c4 d1 e4 3d cb 16 98 bc
       -0.07620836 0.030253738 0.11172822 -0.018565556
000020 87 9b 83 3d 0c 60 98 bd ab a5 3c 3e b0 f6 32 bc
       0.06426149 -0.074401945 0.18422572 -0.010923073
000030 b6 ef 32 bd aa 2b 8d 3c 4c 1e ac 3e 52 b1 4a bd
       -0.043685637 0.017232735 0.33616865 -0.049485512
000040 2f b0 f0 bc 81 9f 70 3e 72 8c 5c 3d 6e 6e ae bb
       -0.029380886 0.23498346 0.053844877 -0.005323223
000050 65 3a bb 3d 12 e7 9f bd 79 b5 ab bd 64 56 45 bd
       0.09141997 -0.07807745 -0.083842225 -0.04817809
000060 d4 b1 8d bf ef 12 ba 3d f8 ac 06 3d 14 d8 f0 bc
       -1.1069894 0.090856425 0.0328798 -0.02939991
000070 83 24 13 be fb d4 4a 3c 8c 3c d8 bd b7 2b e6 3c
       -0.14369397 0.01237988 -0.105584234 0.028097017
000080 12 fd 00 3e f3 2b 3e be a5 21 bd bc c8 ce 25 bc
       0.12596539 -0.18571453 -0.023087332 -0.010120101
000090 e6 0c 42 bd 19 ef 07 bd a7 6e 2d 3b 28 19 95 bc
       -0.047375582 -0.033187006 0.002646366 -0.018200472
0000a0 e6 e4 0a be 5d 20 25 3e f2 0c 02 3e 7f 84 b4 bd
       -0.1356388 0.16125627 0.1270025 -0.08814334
0000b0 e4 11 9f 3d 7e 9f a2 bd 4b 5e 84 bd 44 51 a6 be
       0.07767084 -0.07940577 -0.064632975 -0.32483876
0000c0 3f c0 d7 bd 6e ea 41 be 0c d8 7e 3c f7 66 56 bd
       -0.10534715 -0.18937084 0.015554439 -0.05234429
0000d0 96 a0 13 bd 2b 8f 54 be c4 0b 06 be 9e 56 28 3e
       -0.03604182 -0.20757739 -0.13090426 0.16439292
0000e0 ff 98 d7 3d 21 e1 1d 3c fb 3a a6 3b 24 97 c1 bd
       0.105272286 0.009636194 0.005072949 -0.09452656
0000f0 13 60 c1 bd b8 ff f9 bd 7d 21 9a 3e 15 e1 0f 3d
       -0.09442153 -0.122069776 0.30103675 0.035126764
000100 e5 0f 61 3d d1 21 42 3d 8f 7e 54 bd 1f 8b b3 3d
       0.0549468 0.04739553 -0.05187851 0.087667696
000110 bf 4b d4 3c 2a 4f 72 bd b1 2a 1f 3e cb 38 16 3e
       0.025915025 -0.059157528 0.15543629 0.14670102
000120 55 1b 8a 3d 5f a5 8c bd 71 03 b8 bd f4 b1 1b be
       0.067434944 -0.068674795 -0.089850314 -0.15204602
000130 20 5d 37 3e ea c9 34 3e 9c c2 05 be cc 20 90 bd
       0.17906618 0.17655149 -0.13062519 -0.070375055
000140 bc f0 d4 bc 51 c8 f4 3c 3c 85 d9 3e a0 ed 44 3c
       -0.025993697 0.029880675 0.42484462 0.012019545
000150 77 c0 bd be 9a 5c 66 bd 7e a7 61 be f6 55 a9 bd
       -0.37060902 -0.056240655 -0.2203655 -0.08268349
000160 57 1f 0f 3e f0 b2 6a 3d d3 5a af bd 10 d8 80 3c
       0.13976799 0.057299554 -0.08562245 0.015728027
000170 e9 81 6c 3d 45 4a 96 bd 4a 65 76 3e 0d f9 cd 3c
       0.05774108 -0.073383845 0.24062076 0.02514317
000180 3a 0f 8c 3b 2c ec 99 3c 12 1b dd bc 32 24 8d 3e
       0.004274276 0.018789373 -0.026990447 0.27566677
000190 39 a4 88 3d 88 42 18 3d 63 44 1a bc 08 cf 10 3e
       0.06671948 0.037172824 -0.009415719 0.14141476
0001a0 a9 2e e1 3d 87 2e 2d 3d 9b 9a 06 bb af 15 06 3e
       0.10995228 0.0422807 -0.002053893 0.13094209
0001b0 56 39 90 bd d8 e4 3d bd 22 82 0f be 55 32 1d bc
       -0.07042186 -0.04636082 -0.14014485 -0.00959452
0001c0 e4 28 8a be fc 71 74 3b 65 71 17 3d 6c c8 83 3d
       -0.26984322 0.0037299385 0.036973376 0.06434712
0001d0 36 9c 86 3e 0d ca 0c 3d 02 44 90 3d 54 09 29 3d
       0.26291054 0.03437238 0.070442215 0.04126866
0001e0 7a df 8a bd f0 8e 84 bd b3 74 92 bb b5 e0 17 bd
       -0.06780906 -0.06472576 -0.004469478 -0.03707953
0001f0 80 f7 2c 3e 50 55 a2 bd f6 42 81 bd 5e c6 5c bd
       0.16891289 -0.07926428 -0.063116 -0.053900115
000200 4f e2 31 bd 94 ba a8 3d 73 74 84 be 68 6a 08 3e
       -0.043428715 0.08238712 -0.25870094 0.13321841
000210 80 ff 27 be 23 92 a0 3d 40 29 79 be 28 2d f4 bc
       -0.1640606 0.07840373 -0.24332142 -0.029806688
000220 ec b6 ee 3c a1 1b c1 bd df 9f 88 3c e0 a7 7c bd
       0.029139958 -0.09429098 0.016677795 -0.061683536
000230 2c b7 68 3c 86 8a df bc a4 42 a2 bd 09 10 83 be
       0.014203828 -0.027287733 -0.07922867 -0.2559817
000240 1a 5a e3 bc 09 35 43 3d 3e d1 ba bd 75 4a 29 bd
       -0.027752925 0.047658 -0.09121941 -0.041330773
000250 5d 81 20 3e 47 97 aa bd 06 41 80 bc 6c fb b2 bd
       0.15674348 -0.08329635 -0.015656006 -0.08739361
000260 40 dd 6a bc ce 0e 9f bd 4d 52 72 bd 29 55 9f bd
       -0.014334977 -0.07766496 -0.05916052 -0.07779915
000270 25 69 47 3d 3a 27 d6 bd 39 8e a0 3e a7 38 ee bc
       0.048684258 -0.104567006 0.31358507 -0.029079748
000280 13 98 26 3e 11 24 f5 bb 31 ee 3c 3e 3d 77 29 bd
       0.16268949 -0.007481106 0.18450238 -0.04137348
000290 ba 88 11 bd 5a 30 ae bd 99 34 4a bd 2f d9 fb ba
       -0.035530783 -0.08505316 -0.049366567 -0.0019214506
0002a0 c6 8b be 3d b6 0d 0f be c2 6b 9e bc ac 49 f8 bd
       0.093040034 -0.13970074 -0.019338492 -0.12123427
0002b0 7d 73 1a 3e 00 a4 84 3d 83 97 ff 3d 99 2b 30 b9
       0.15083118 0.06476593 0.124800704 -0.0001680091
0002c0 c1 e8 f9 bc e1 60 bb 3d 7b 1c 9c 3d 9b 99 9a bd
       -0.030506494 0.091493376 0.0762262 -0.07548829
0002d0 4d 11 20 3e c9 22 9d b9 78 b2 5b 3d f1 4c 7e 3e
       0.156316 -0.0002997129 0.053636998 0.24834038
0002e0 9b 75 9a 3d 94 bd db 3c d1 2b 28 3e 09 e8 28 bd
       0.07541963 0.026823796 0.16422965 -0.04123691
0002f0 cf 5f 20 bd 8e 8a 2c be c6 59 89 bd 7f 97 2d 3e
       -0.03915387 -0.1684973 -0.06706576 0.16952322
000300 c9 5b ec bd dd 92 22 3e e2 9b c8 3d 09 59 f7 3b
       -0.11540944 0.15876336 0.09795357 0.0075484556
000310 a0 f8 1c 3e 7f 69 d7 bb 13 4a d2 bc 05 e5 29 bd
       0.15329218 -0.0065738554 -0.025670087 -0.041478176
000320 c0 d6 8a 3c cd a3 b3 be 4a cf 1b be 6a 32 a1 3d
       0.016948104 -0.35085908 -0.15215793 0.07870944
000330 36 b8 58 3d 26 a4 ea bc 99 77 98 3c 2d 96 7c bd
       0.052910052 -0.028642725 0.018611716 -0.061666656
000340 5e e6 b1 bd 4a 64 65 3b eb 94 e0 bd e7 25 8d bd
       -0.08686517 0.0035002404 -0.10965904 -0.06891995
000350 d6 0e d4 3d b5 6c 0b bc 1f d7 c0 be f7 71 47 3c
       0.10354392 -0.0085098045 -0.37664124 0.012173167
000360 83 b0 f4 bd 1c 8f 35 3d 43 97 b4 3d 83 f6 b8 bd
       -0.119477294 0.044325933 0.088179134 -0.090313934
000370 50 bc de 3d 66 6a 49 bd 49 84 47 3c dc 67 8b 3d
       0.108757615 -0.049173735 0.012177535 0.06806919
000380 23 01 16 3e 73 ba 0f be 1e 7e 3d be fc 0b 09 be
       0.14648871 -0.14035968 -0.18505141 -0.13383478
000390 93 ea 81 bd 66 76 07 be 31 22 13 be 70 cc 7a 3d
       -0.063435696 -0.13228759 -0.14368512 0.061230123
0003a0 ed f1 8a bd ed 87 55 bc d9 fc 90 3e e7 2b 15 3d
       -0.06784425 -0.0130328955 0.28317907 0.03641882
0003b0 02 98 64 bd 3f 74 ba bd 5e 3c 53 bd bb f1 73 bd
       -0.05580903 -0.091042034 -0.051571243 -0.059556704
0003c0 3b 18 ad 3c 41 96 8f bb db fb 08 bd 6c 89 db bd
       0.021129718 -0.0043819253 -0.033443313 -0.107195705
0003d0 23 e4 84 3b 7c 13 5b bd bf 46 b0 bd ba cf 25 bd
       0.0040555163 -0.05348538 -0.08607244 -0.040481307
0003e0 ba 25 39 3e 66 e5 2c 3e 4a ae 07 3d b1 ac 9f be
       0.18080798 0.16884384 0.0331252 -0.3118644
0003f0 41 5f c2 3b eb b5 01 bd 6d fc 7e be ca 49 68 bd
       0.0059317653 -0.03166763 -0.2490098 -0.056710996

bias f4 [256]
000000 5b ab 82 3a 47 18 2f 3c 3c c6 4c 3d 90 ff 42 bd
       0.0009969281 0.0106869405 0.04999374 -0.047607005
000010 02 89 2f bd 52 ef 32 3d 6b 29 c0 3d ef de 95 be
       -0.04285527 0.043685265 0.093829 -0.29271647
000020 b7 58 4f 3d 55 06 ee bd 51 9f c6 bd e5 fb bf bc
       0.050621714 -0.116223015 -0.09698356 -0.023435542
000030 5a 65 8e b9 97 53 ee 3d 15 c9 c9 3d bb 9a d7 3c
       -0.00027159863 0.11637037 0.098528065 0.026318898
000040 5d 8c 28 bd 8d 3e f1 3c 9e 9f 82 3d 2d bc 05 3c
       -0.041149486 0.029448772 0.06378101 0.00816254
000050 d7 50 af 3c d1 78 87 3d bc a9 a5 3c c3 9d 82 bc
       0.021400852 0.06614841 0.020222537 -0.015944367
000060 dc 8e 80 3d 3b 15 9c 3b d1 78 27 bd 51 7d 16 3e
       0.06277248 0.004763273 -0.040886704 0.14696242
000070 18 f2 c1 3d 27 30 5c bd 31 d2 4a 3d a5 fb 67 3d
       0.09470004 -0.05375686 0.04951686 0.05663647
000080 3b 8c 9d be d8 a8 77 be f9 93 97 bd e8 af cb bc
       -0.3077105 -0.24185503 -0.074012704 -0.024864152
000090 27 52 aa bc 34 be ef 3c 15 e6 51 3e 99 c6 ee bc
       -0.020791126 0.0292655 0.20497926 -0.029147433
0000a0 76 1f fb bc 13 2c 40 bd c3 d9 81 3c 25 94 d7 3d
       -0.03065465 -0.046917032 0.015850907 0.10526303
0000b0 9b c3 1c be 54 e2 ea 3d 67 3c c5 be 6c 64 c5 bd
       -0.15308993 0.1146895 -0.38522646 -0.096382946
0000c0 01 a4 75 bd fa 0f c2 bd f4 41 9b 3d e9 8a d8 3d
       -0.05997086 -0.094757035 0.07580939 0.1057337
0000d0 56 0c 8e be 55 91 02 bd e7 23 4f 3e ce 5d 9e bd
       -0.27743787 -0.03187688 0.2022854 -0.077327356
0000e0 4b bd 32 3e 41 56 28 3d 07 26 89 3d 19 e3 58 3d
       0.17455022 0.041097883 0.06696706 0.052950952
0000f0 a8 ad f7 3a 11 02 93 3c 67 e3 a3 bc 0c a8 50 be
       0.0018896358 0.017945321 -0.020005895 -0.20376605
000100 cf 11 b4 3e c0 4f b5 bd b1 40 26 be ac 60 06 3c
       0.35169837 -0.08853102 -0.16235615 0.008201759
000110 0c da 3f 3d 6d 29 30 bd 2a 1a 10 3d a5 87 76 be
       0.046838805 -0.043008257 0.035181202 -0.24075182
000120 79 1e 1f 3d b3 06 b4 bd d1 e6 4e 3c c6 27 1e 3d
       0.03884742 -0.0879034 0.012628273 0.03861215
000130 46 d5 9f bd 4d 4a a9 3d 83 fb 81 3d 79 de c4 3d
       -0.078043506 0.08266125 0.063468 0.09612746
000140 91 c5 e1 3c 30 c2 a9 3b 3e 5e 44 3e fa ef 32 bd
       0.027560027 0.0051806197 0.19176576 -0.04368589
000150 96 bf a0 ba 9f 18 49 bd a0 c8 fe bd a2 19 40 3d
       -0.0012264128 -0.049095746 -0.1244061 0.046899445
000160 e6 03 a5 3d 3d 13 23 be 49 36 6c be 8c f7 05 bf
       0.08057384 -0.15925308 -0.23067583 -0.5233085
000170 7c 58 5d 3d 16 bd 89 bd 61 7f 27 3e 8d 13 2f bd
       0.054039463 -0.067255184 0.16357185 -0.042743254
000180 80 18 40 bc 2b c2 c0 3d 94 41 ba 3d 11 01 57 3c
       -0.011724591 0.094120346 0.09094539 0.013122813
000190 50 2e 6d bd 42 4c 75 3c 08 b9 a4 be a9 d7 8e 3d
       -0.057905495 0.014971795 -0.32172418 0.06974728
0001a0 f8 02 71 3d 6f ed 68 3e ca fd 53 3e 4a 1e 0c 3d
       0.05884072 0.22746824 0.20702282 0.034208573
0001b0 e1 53 7d bc c6 61 95 be 92 fe de bd a7 2b 8a bd
       -0.015461893 -0.29176158 -0.10888399 -0.06746607
0001c0 92 b2 9c 3b ae 93 ef 3c 67 e4 0d 3d 12 41 4a 3e
       0.0047820294 0.029245224 0.03464165 0.19751385
0001d0 ce b0 ad be 84 9b a0 3d 50 d0 f3 3c d1 bb 95 3e
       -0.33923954 0.07842162 0.029762417 0.29244855
0001e0 22 15 4a 3e 9c ee 25 3e ca 44 6b bd 2b 9c 14 3d
       0.19734624 0.16204304 -0.05743865 0.036281746
0001f0 a6 67 2e be 7b c1 af bd 60 f0 f1 ba 26 74 58 3d
       -0.17031726 -0.08581825 -0.0018458478 0.052845143
000200 57 f4 2e be be 3d 84 bb 93 b4 05 be dd 25 6e be
       -0.17085396 -0.0040356806 -0.13057165 -0.23256631
000210 44 98 1e bd a1 ee 20 3e 78 ca a9 3d 2d 71 6d bd
       -0.03871943 0.1571603 0.08290571 -0.05796926
000220 4b f6 c8 3d d0 17 f2 3c d3 f0 dc bc f2 5f 87 bd
       0.09812602 0.02955237 -0.026970303 -0.06610097
000230 ef 3f 93 3e ff 4c 94 3c 62 b7 f1 3d e0 c7 0d bd
       0.28759715 0.01810312 0.118025556 -0.034614444
000240 d1 7c a0 3b d3 33 8b bd c1 12 52 3d e9 ab 7d 3e
       0.004897692 -0.06796994 0.051287416 0.2477261
000250 7d 72 11 be 71 75 04 3e 87 9d 3d 3e ed 86 29 3d
       -0.1420383 0.12935425 0.18517123 0.04138844
000260 41 69 2e 3e d3 a0 e6 bc 71 c4 b7 bc 23 5e 8f bc
       0.17032339 -0.028152859 -0.022432538 -0.017500943
000270 0b 3a 30 bb 2e 80 2a bd b1 1a 09 3e bd d4 a0 3c
       -0.0026890065 -0.041626148 0.13389088 0.019632692
000280 58 0a 9a 3e 58 d6 59 3c 32 91 13 bd 44 c6 af bd
       0.30086017 0.013295732 -0.03602714 -0.08582738
000290 0f bb df 3d 3f b2 62 be 81 4b c3 3d 9a 8a 7b bd
       0.109243505 -0.22138308 0.095358856 -0.061411478
0002a0 50 4a 5e 3e 43 24 f3 3d da 9f a6 3d 70 44 92 be
       0.21708035 0.11872151 0.08135958 -0.2856784
0002b0 68 f6 34 3a fd 12 4d 3e 4e 8b 14 3d 3f a5 22 3d
       0.00069031725 0.20026775 0.036265664 0.039708372
0002c0 0e 29 49 bb ae 2f a6 3d 79 5f 8a 3c b7 10 e2 3d
       -0.0030694637 0.08114563 0.016891228 0.11038344
0002d0 bd de 27 3d 27 90 ce 3d 78 e5 9f bd 89 dc 80 bd
       0.040983904 0.10086089 -0.078074396 -0.06292064
0002e0 33 45 8d 3d c2 55 ba 3d d0 83 80 3e 7f 3c c9 3d
       0.06897964 0.09098388 0.25100565 0.09825992
0002f0 bd 11 09 bd c7 ff 58 3e f9 30 14 3e d8 2c e4 3c
       -0.033464182 0.21191321 0.14471807 0.027853414
000300 68 95 bc 3d ae b0 30 bd f1 bb b5 3b 05 88 54 3e
       0.092081845 -0.043137245 0.005546086 0.20755012
000310 e7 29 8b bb b1 f3 f2 bd b5 02 a9 bd 02 0f ec bd
       -0.0042469385 -0.11862887 -0.082524695 -0.115263
000320 b3 57 82 3c 92 ed 91 be 9d b0 33 bd a9 96 ef bd
       0.015910959 -0.28501564 -0.043869603 -0.11698658
000330 87 a8 44 be 4b 48 d9 be bb 68 b6 be 88 9e 1d bd
       -0.19204913 -0.42437968 -0.35626778 -0.038481265
000340 7b 62 3a 3c 23 c0 a6 bd 67 e7 6e bd 5c 21 9b 39
       0.011376019 -0.08142116 -0.05832615 0.00029588758
000350 1f 68 d6 bc f4 7b a4 3d 5d d7 6f bd 56 27 01 3d
       -0.026172696 0.08031455 -0.058554996 0.031531654
000360 12 cb 4e 3e 32 98 24 bc b1 1d da bd 8e 68 61 bd
       0.20194653 -0.010046052 -0.106501944 -0.05503135
000370 dc f1 b2 3c 56 12 26 3c b8 b1 59 be 3c 6e 86 3d
       0.021843843 0.010136208 -0.212592 0.06563994
000380 f3 4c 46 3c c1 26 be 3c 36 4e 6a bd 33 3f 00 3e
       0.012103307 0.023211839 -0.057203494 0.12524109
000390 f2 43 15 3e 9b ad ab 3c bc 52 96 3c 2d 31 82 bd
       0.145767 0.020956805 0.018349998 -0.06357036
0003a0 27 e7 49 bd a7 00 8d 3e 3f 70 aa 3c e6 28 46 3e
       -0.04929271 0.2753956 0.020805476 0.19351539
0003b0 e9 c1 c7 bc 2b d0 33 bc 2e f5 80 3d b9 50 7c bd
       -0.024384456 -0.010974924 0.06296764 -0.06160042
0003c0 9a ce 80 3c b0 84 92 bd 4d 79 cf be 47 e2 04 3d
       0.015723515 -0.071542144 -0.40522233 0.032442357
0003d0 65 1e 2d bc 55 a1 69 3d 2d d7 68 bd e8 cc a3 bd
       -0.010566329 0.057038624 -0.056845833 -0.07998067
0003e0 dc cd 33 3e df de 5c 3c 04 bb dc be 3c be 86 bd
       0.17558998 0.013480871 -0.43111432 -0.06579253
0003f0 97 72 cd bd 67 54 28 bd 64 86 83 be 7a eb a6 3d
       -0.10031622 -0.041096117 -0.2568847 0.08150382

weight f4 [12, 256]
000000 b1 3b e3 3c 23 2b 12 3e de bf 5d 3e 29 53 6f bc
       0.027738424 0.14274268 0.21655223 -0.014607229
000010 06 da 19 bd 28 40 42 3d 98 a6 4a 3b 0c 12 31 bb
       -0.03756144 0.047424465 0.0030922052 -0.0027018813
000020 cc eb 72 bc 97 e7 6e bd 83 e2 b3 3d 3b 6b ec 3d
       -0.014826726 -0.05832633 0.08783438 0.1154389
000030 4b ee 1e 3d 48 f4 44 3e 38 8b 8d 3c 19 f3 c8 bb
       0.038801473 0.19233811 0.017278299 -0.006132495
000040 f4 87 3b 3e 77 d5 59 3c 95 40 b4 bc 60 d4 38 3d
       0.18313581 0.013295523 -0.022003451 0.04512441
000050 4e f2 20 bc 54 60 69 bb 44 8b fb bc b6 f9 2c bc
       -0.009823395 -0.0035610395 -0.030706055 -0.010557583
000060 50 4e 67 3c 82 20 db bd 80 e0 36 bd b0 cd c9 3c
       0.014117792 -0.1069956 -0.044647694 0.024634212
000070 f8 60 07 bd 1f 4b 1e 3c 62 38 17 3c 31 77 43 3e
       -0.03305146 0.009661465 0.009229751 0.19088437
000080 71 4b 56 3b 5e e6 28 bb 0e 1f ab bc a0 ac 82 bd
       0.0032698775 -0.0025772075 -0.020888831 -0.06380582
000090 85 2c a7 bc 69 5b 4c bd 11 4d 79 bc 40 cb 3b bb
       -0.02040697 -0.049891863 -0.015216128 -0.0028655082
0000a0 69 5d b7 3a be e7 8c bc d3 18 a3 ba 22 cb 32 3e
       0.001398963 -0.017200347 -0.0012443311 0.17460302
0000b0 f9 a4 5d bb cb ef 8a 3a 59 d8 34 3c c4 cc f8 bb
       -0.0033820255 0.0010600028 0.011037909 -0.0075927693
0000c0 19 8e 2f 3d 3a 5c 88 bc 50 ce 35 3e 2e 04 9f 3d
       0.042860124 -0.01664554 0.17754483 0.07764469
0000d0 0d 93 85 bd 57 ce d9 bc 8a b1 70 3b 20 a4 55 3d
       -0.06522188 -0.026587648 0.0036726915 0.052158475
0000e0 4a 43 93 3a 63 27 45 3c 7f d7 f4 3c e8 0d 41 3e
       0.0011235264 0.012033316 0.029887913 0.18852961
0000f0 3d 90 72 3d d2 90 a3 bc e3 fa 32 bd 08 36 35 bc
       0.059219588 -0.019966517 -0.043696295 -0.011060245
000100 1f 65 22 3d b0 3d 9f 3b 82 e5 04 bc 31 3f 48 3e
       0.039647218 0.0048596486 -0.00811136 0.19555356
000110 6a 67 f7 bc 6a 22 ba 3c 09 3a 30 bd 1c 36 56 3a
       -0.030200679 0.022721488 -0.043024097 0.0008171515
000120 6b fe 02 bd d4 79 e4 3c f8 e6 48 bc 9d 62 09 3e
       -0.031980913 0.027890123 -0.0122620985 0.13416524
000130 81 68 2e bc c3 5b 1a 3e b0 c3 35 3b 0a 49 fa 3d
       -0.010645033 0.15074067 0.0027735047 0.12220962
000140 47 bf 10 3e 71 16 14 bc a2 5c c8 3c 54 57 ac bc
       0.14135467 -0.009038554 0.024458233 -0.021037735
000150 04 32 cd 3d b4 fa da bc 19 39 e4 bc 52 b9 03 bd
       0.10019305 -0.026730873 -0.027859258 -0.032159157
000160 a2 91 69 3c e5 3a 75 3c 1b 35 9a 3c 09 f6 90 bc
       0.014255913 0.014967655 0.01882415 -0.017695444
000170 65 22 09 bd 66 11 ba 3b 73 03 81 3b f6 6b df 3c
       -0.033480067 0.0056783436 0.0039371788 0.02727316
000180 f7 ea 1d ba c4 27 30 bd ae 35 19 bd 1c ae 6d bc
       -0.0006024087 -0.043006673 -0.03740471 -0.014506843
000190 c8 d8 87 bd b6 0d 25 3e 8e 3c ac 38 de c0 95 3d
       -0.066331446 0.16118512 8.212878e-05 0.07312177
0001a0 b8 e9 22 3e 46 66 97 bb a4 8d 72 bd 92 0f 3d ba
       0.15909469 -0.0046203462 -0.05921711 -0.0007212098
0001b0 30 3b ea bd 2b e5 99 bb 2e 21 e2 37 7b cb 3e 3e
       -0.1143707 -0.0046965084 2.695675e-05 0.18632309
0001c0 9b bb f9 bb 94 fa 3a 3e 36 1e fc 3d c9 b7 56 3b
       -0.0076212413 0.1825965 0.1231045 0.0032763353
0001d0 32 1a b2 bb 9f 4a 5f bd 42 cc 7e bc ca a1 47 bc
       -0.0054352516 -0.054514524 -0.015551629 -0.01218457
0001e0 0a 68 5f 3c 7d f0 13 3b de 7e 64 bb e6 10 0f bd
       0.013635645 0.0022573762 -0.0034865658 -0.034928225
0001f0 a8 b9 41 bc 9a 9b 16 3c 19 3d 8f bb 69 1f 58 bc
       -0.011824049 0.009192372 -0.004371297 -0.0131910825
000200 8f 43 55 bb ac 01 22 3e ff 20 3d bd 9e 39 6c 3b
       -0.0032541489 0.1582095 -0.046174046 0.0036045085
000210 49 42 a0 39 4a b4 76 3c 08 bd b9 3d 4d 45 37 bd
       0.00030566964 0.015057633 0.09069258 -0.044743825
000220 69 a2 0f bd 5f 10 20 3d 5b 4b 37 3d 94 82 24 37
       -0.035066996 0.039078113 0.0447496 9.805564e-06
000230 40 37 67 3b 24 21 8e bb 77 f0 ff 3b c8 5f 30 bc
       0.0035280734 -0.0043374468 0.007810648 -0.0107650235
000240 04 04 9e bd 0d 77 22 bd 0b bb 55 3d ed f4 52 bc
       -0.0771561 -0.039664317 0.05218033 -0.012875778
000250 12 8e 2d be 94 b5 21 3e 36 a8 1b bb 43 79 ed bc
       -0.16948727 0.15791923 -0.0023751385 -0.028988486
000260 b7 76 ad bc 37 1a e5 bb ba c7 2e 3c e9 b5 48 bd
       -0.021174772 -0.0069916504 0.010667736 -0.049001608
000270 05 48 29 bd c3 20 27 3e d4 ab 8a bc e4 de 0b bd
       -0.04132845 0.16321091 -0.016927637 -0.034148112
000280 3c de bd bc fc 9e a9 bd 5f 4d 8a 3b 14 ea 1a bd
       -0.023177259 -0.08282277 0.004220649 -0.03782089
000290 5c 5c 9f 3d dc b9 54 3b 8d a7 b1 bc c6 a1 85 bc
       0.07781288 0.0032459414 -0.02168634 -0.016312491
0002a0 0e 44 0f 3c b2 be f3 3c 7b 54 a5 3d 77 2f a8 bc
       0.008744253 0.029754017 0.08072754 -0.020530446
0002b0 dc 86 84 3c d9 39 b1 bb 09 3f 5c bc 81 e5 df 3d
       0.016177587 -0.0054085073 -0.013442763 0.10932446
0002c0 c7 e7 45 bd 66 24 4b 3e 73 55 1b bd c7 4d 38 3c
       -0.048316743 0.19838104 -0.037923288 0.011249012
0002d0 79 4b b1 bc 33 67 40 3e c2 30 9b bc 87 c2 c9 3a
       -0.021642433 0.18789367 -0.018944148 0.0015393057
0002e0 c6 00 d6 bb 76 a2 c5 bb 2d 96 56 3c 59 af 26 ba
       -0.006530854 -0.0060313297 0.013097328 -0.00063585263
0002f0 96 69 de 3d c6 3c 08 3b c0 cd 0b 3d fb f8 bb 3d
       0.10859983 0.0020788177 0.034131765 0.09178349
000300 35 c6 4c ba e9 17 83 3c ec 93 a0 bd 46 a3 8d bc
       -0.00078115176 0.016002612 -0.07840714 -0.017289769
000310 3e b0 44 bc 25 b3 9f 3b 57 a5 79 bc 14 a7 cc 3c
       -0.01200491 0.0048736506 -0.015237174 0.024982013
000320 1e 1f ee bb cd 15 85 bc ea e2 da 3b 87 3b 01 bc
       -0.007266893 -0.016245747 0.0066798823 -0.007887728
000330 44 7c 74 bc 0c 8a 55 bc 46 c2 5f 3c 57 e1 63 bc
       -0.014922205 -0.013033401 0.013657158 -0.013908706
000340 2a 51 d0 bc 69 63 4a bc 77 10 24 3d ae b0 38 3e
       -0.025429327 -0.012352803 0.040054765 0.18036148
000350 20 48 4a 3e aa 06 67 3e 05 fb b5 3c c3 36 83 bc
       0.19754076 0.22561136 0.022214422 -0.016017323
000360 2d 9a 12 bc 90 be 31 3e 49 a9 b6 3b bf 60 52 bd
       -0.008947891 0.1735785 0.0055743796 -0.051361796
000370 d5 03 28 3e 58 9d 4a 3b 62 ff 5c 3a de c3 22 3e
       0.16407712 0.0030916538 0.0008430389 0.1589503
000380 72 97 5d bd c0 be c8 bb 93 da 25 3e 1a cb 54 3d
       -0.054099508 -0.006126255 0.1619666 0.051951505
000390 b2 55 3d 3c 64 c2 6a bc 10 ae 08 bb 98 0e 39 bb
       0.011556076 -0.014328573 -0.0020855702 -0.0028237458
0003a0 9e fc a2 bc 5f 0c 94 bc dc 0e 4e 3c ed e6 78 3a
       -0.019895848 -0.018072305 0.012576785 0.000949486
0003b0 30 f3 53 3c 5f 3e b7 3d ee 94 34 3e e6 24 20 3d
       0.012936398 0.08947443 0.17634937 0.03909769
0003c0 d7 88 2c 3c d9 a1 0d bc dc f1 e8 b9 c1 ca 65 bc
       0.010530672 -0.0086445445 -0.00044430688 -0.014025391
0003d0 ad c8 21 3e 32 61 dc 3b 6f 52 7d 3b dd 74 17 bd
       0.15799208 0.006725454 0.003865387 -0.036976684
0003e0 e7 7e 87 3a d0 50 ff 3a 29 d2 56 bb 57 24 4f 3c
       0.0010337502 0.001947904 -0.0032779074 0.012642941
0003f0 ff bf d1 3d dd 0c 13 bd be 42 c0 bc 65 15 14 3b
       0.102416985 -0.03590094 -0.023469325 0.002259576

bias f4 [12]
000000 21 88 a1 3d 09 00 78 3d 6f 95 95 bd 60 2e ed 39
       0.07887293 0.06054691 -0.07303893 0.00045238715
000010 99 30 15 3d e9 3c 2b 3d 81 80 c4 3d b5 f9 89 3d
       0.0364233 0.041806135 0.09594823 0.06737081
000020 c9 18 c6 3d 90 58 c8 bc 2d 02 b4 bc 5f 4e fc 3d
       0.09672696 -0.024456292 -0.021973694 0.123196356
